output/best_demand_forecast_model.pth (torch, 321362 bytes, 29 tensors)

network.0.weight f4 [128, 117]
000000 d9 58 79 bf d0 45 ba be 1d 87 81 3f 15 81 8c 3f
       -0.97401196 -0.36381388 1.0119358 1.0976893
000010 c0 24 86 3f c4 ba d5 3f 97 91 2d bf 9a 06 48 3f
       1.0479965 1.6697621 -0.6780028 0.78135073
000020 a0 2f 49 3f 0d ed 85 3f bd 4a 06 40 ee fe ca 3e
       0.78588295 1.0462967 2.0983117 0.3964762
000030 40 f1 1b 3f 6d e2 af 3e 7e b1 a3 3f 39 ee dc 3e
       0.60914993 0.34352437 1.2788541 0.431505
000040 61 f9 87 3f cf d8 99 3e 90 3b eb 3e 8d 25 d3 3f
       1.0622979 0.30048224 0.4594388 1.6495835
000050 f4 ac e5 3f 2b 43 96 3f 70 29 2f 3f b4 76 2a 3e
       1.7943406 1.1739248 0.68422604 0.16646844
000060 a4 15 9b 3f 18 05 8b 3e 83 2a 2a 3f 05 f6 90 3d
       1.2115979 0.27152324 0.6647112 0.070781745
000070 ee d8 e6 3e f6 ab 9f 3e f4 6d e5 bd 6a 10 35 bf
       0.4508738 0.31185883 -0.112026125 -0.7072817
000080 19 1b a0 3f 05 a6 b6 3f 0b 4c 0a 3f 89 95 88 3f
       1.250827 1.4269415 0.5402228 1.0670635
000090 2e d5 0d 3f e1 9f 01 3e 0f a5 e9 3e 3b a6 70 3f
       0.5540341 0.12658645 0.45633742 0.9400365
0000a0 64 05 bc bd d4 16 8a 39 38 11 ce 3f 3b 53 64 3f
       -0.09180716 0.0002633842 1.6099005 0.891895
0000b0 ce 03 aa 3f 43 86 1c 3f cb 99 e9 3f 60 6d d3 3e
       1.3282411 0.6114237 1.8250059 0.41294384
0000c0 b5 a2 22 3f 7c 6b 0b 3f 1b f2 b2 be f8 24 74 3c
       0.6352952 0.54460883 -0.34950337 0.014901392
0000d0 ef 2d 05 3f c7 59 07 3f 81 a6 4b 3f 02 0a ab 3f
       0.52023214 0.52871364 0.7955094 1.3362429
0000e0 50 8a d9 3e e8 49 00 3f e3 9a bf be b9 b4 1a 3f
       0.42488337 0.5011277 -0.37422857 0.6043201
0000f0 54 90 96 3f 46 3a af be 7d 3e 3d 3e 68 9a dc 3f
       1.1762795 -0.34224147 0.18480869 1.7234621
000100 2e 7b 44 3e 84 9d e7 3f 0e 58 9a 3f 34 87 57 3f
       0.19187614 1.8094945 1.2058122 0.8419068
000110 5d b7 68 3d 85 c9 58 3f b7 28 ba 3f f9 81 2b 3f
       0.056815494 0.84682494 1.4543675 0.669952
000120 9e 77 28 3f 82 57 df be ab 5f 40 3f 5f bf a4 3f
       0.6580752 -0.4362145 0.7514598 1.2870902
000130 30 5c 15 3f eb 6a 26 3f 93 40 06 3e 07 b3 22 3f
       0.5834379 0.65006894 0.1311057 0.63554424
000140 b4 8b b6 3e 3f 33 4a 3e a5 f5 2c 3f 09 b8 a8 3e
       0.3565346 0.19746111 0.67562324 0.32952908
000150 6c 78 c2 3e ca 8a a8 3d c9 e6 62 3f ed f3 95 3c
       0.379825 0.08229597 0.886334 0.01830479
000160 f4 a6 95 3f cb f0 94 3e 90 6c 8a 3f db f8 9a be
       1.1691575 0.2908996 1.0814381 -0.30267987
000170 29 85 e7 3f 65 5f bf 3f 65 cc 99 be 3d 8e 60 3f
       1.8087512 1.4950987 -0.30038753 0.8771704
000180 e7 05 88 be 6c 1c 58 3f b6 42 06 3f e7 11 6f 3f
       -0.26567003 0.8441837 0.5244554 0.9338669
000190 7a 4c 9c 3f 13 d3 37 3f d2 4e 12 3f 0b a1 2b 3e
       1.2210839 0.7180645 0.5715152 0.16760652
0001a0 54 af 40 3d b3 bc 2f 3f c5 7b 38 3f f8 9d 59 be
       0.047042206 0.6864731 0.7206386 -0.21251667
0001b0 6d 93 93 3e bf 01 12 3d 0a a6 f5 3e 43 6f 28 3f
       0.28823414 0.035646196 0.4797824 0.6579477
0001c0 e1 96 f5 3f ad cb 5f 3f 1c 0b e6 3f 96 17 bf 3f
       1.918667 0.8742016 1.797214 1.4929073
0001d0 31 4a 7f 3d ca 7a 31 3e 4e f1 44 3e 92 14 cb be
       0.062326614 0.17331997 0.19232675 -0.3966413
0001e0 06 db 92 3d 44 0a 13 bd 85 48 99 bd c4 65 49 3e
       0.07170682 -0.035898462 -0.07484535 0.19667727
0001f0 80 64 b5 3e 54 41 11 3f 53 16 a1 3f 26 6e 25 3e
       0.35428238 0.5674031 1.2584938 0.161553
000200 f6 da b1 3f 9b 12 5a 3f b8 eb 70 bf 56 d9 96 3f
       1.3894947 0.8518464 -0.9410968 1.1785076
000210 66 e6 4e 3f 4b 3b 05 3e c1 c8 91 3f 2e 1a 1c 3f
       0.8082031 0.130109 1.138939 0.6097745
000220 d1 08 ba 3d 92 6e 56 3f 50 6c c1 3d c8 db 3a 3f
       0.09083713 0.83762467 0.09444487 0.7299161
000230 7c ec 9c 3f dc 75 ff 3d 91 3b 89 3f ec e2 c5 3e
       1.2259669 0.12473652 1.0721303 0.3864969
000240 f7 98 68 3f b9 14 96 3d d2 06 5f 3e 1e 83 a4 3f
       0.90858406 0.07328171 0.21779945 1.2852514
000250 01 7f 56 3b b4 96 14 3e e8 33 1f 3e 96 c1 57 3e
       0.0032729509 0.14510614 0.15547144 0.21069941
000260 10 ac 2a 3f 94 4d 66 3e f7 3c e9 3b 16 ca 93 3f
       0.66668797 0.22490531 0.0071178633 1.1546047
000270 32 3b 63 bd 59 9a b6 3d 00 7b 86 3f 62 15 89 3d
       -0.055476375 0.08916158 1.0506287 0.066935316
000280 58 58 85 3d 54 bf 60 be f7 0d a6 3f 61 1e 85 3d
       0.06510991 -0.21947986 1.2973012 0.06499935
000290 76 d4 5e 3e ee 0e 8b 3f cc e0 35 3f 24 fe b7 3f
       0.21760735 1.0863931 0.7104614 1.4374433
0002a0 53 f7 90 3d 47 fc 3c 3e ed 72 a7 3e e8 82 11 3d
       0.07078423 0.18455611 0.3270487 0.035525233
0002b0 79 34 2f 3c 43 52 db 3f da e2 87 3f 56 c4 c3 bb
       0.010693663 1.7134479 1.0616105 -0.005974333
0002c0 82 6d 7b 3f 23 68 ee 3f d5 f6 a6 3d e8 9f ee 3d
       0.9821397 1.862553 0.08152548 0.116515934
0002d0 5c 56 71 3e 96 40 a6 3d 7a cb 80 3e 7b 78 3f 3f
       0.235681 0.081177875 0.2515524 0.74793214
0002e0 bd 0e 03 bf ab bd 22 3e bf fb db 3e 22 eb 27 bd
       -0.51194364 0.15892665 0.42965505 -0.040995724
0002f0 86 51 4d 3d b4 c2 87 3d b4 3e 5b 3f c0 69 82 3f
       0.050126575 0.066289335 0.8564255 1.0188522
000300 a4 10 0f 3d ac 77 9b 3f 2c fc 8b 3d 80 49 6c 3c
       0.03492798 1.2145896 0.06835207 0.014421821
000310 7b 58 91 3f 9b 10 84 be 6a 18 a6 3e 2c 4b 74 3f
       1.1355127 -0.2579392 0.324405 0.95427203
000320 86 7f 73 3e a7 6a e0 3c 19 b7 ca ba 0f aa 56 3e
       0.23779115 0.027394606 -0.0015465944 0.2096331
000330 85 c4 80 3f c5 7e b8 3c 24 56 66 3e f3 4d 92 3f
       1.0059973 0.022521386 0.22493798 1.1430038
000340 2a 48 94 3f 86 46 f5 3d b1 0a d0 bc 0a f4 07 3d
       1.1584523 0.11976342 -0.025395723 0.03319172
000350 5c 64 81 3b 3f 55 14 bb d5 0f 01 3f 5c f2 6a 3d
       0.0039487313 -0.0022633818 0.5041478 0.05736004
000360 c8 a0 93 3f 9c 92 91 3c ef 94 13 40 d0 d7 14 3b
       1.1533442 0.017770104 2.3059652 0.0022711642
000370 66 0a c0 3f 2f b0 8e 3f 0d bf e0 3d 67 0f 5c 3b
       1.5003173 1.1147517 0.1097394 0.0033578516
000380 db 00 8e 3d 0e 22 ce 3d 51 53 67 3f 98 d0 62 3d
       0.06933757 0.10065089 0.90361506 0.05537471
000390 41 0e c4 3d 08 b9 8c 3c da 40 04 3e 99 3d a2 3f
       0.09573031 0.017178074 0.12915364 1.2675048
0003a0 ba 5b a4 ba 80 39 ea 3f 13 cf 4f be 75 fe 0c be
       -0.0012539544 1.8298798 -0.20293836 -0.13768943
0003b0 d9 9a 83 bf 1e 0e b9 bf f3 d2 ab bf 0c b3 a3 bf
       -1.0281631 -1.4457433 -1.3423752 -1.2789016
0003c0 39 85 09 bf b8 11 18 bf 30 81 29 bf 48 0d aa bf
       -0.53718907 -0.59402037 -0.6621275 -1.3285303
0003d0 6c 73 3a bf ec d6 0c bf f0 f0 3f bf 65 0a 62 bf
       -0.7283237 -0.55015445 -0.74977016 -0.8829711
0003e0 6c 09 16 bf 34 87 0c 3f ec 4e 15 bf 34 34 68 be
       -0.58608127 0.54893804 -0.5832355 -0.22676164
0003f0 f7 5b a2 bd f4 04 4c bf 01 bd 62 bf 9a 08 58 bf
       -0.07927697 -0.7969506 -0.8856965 -0.84388125

network.0.bias f4 [128]
000000 fd 00 ca 3e 20 ef e7 be f6 91 d8 bd e3 84 12 bf
       0.3945388 -0.45299625 -0.10574715 -0.5723402
000010 da 73 1a bf 6b 10 0f 3f 23 92 77 3e aa cc 38 3d
       -0.60333025 0.55884427 0.2417684 0.045117058
000020 09 73 8d 3f 19 2b 8c be db 06 bd 3d 7c 59 17 3f
       1.1050731 -0.2737663 0.09229823 0.5912092
000030 25 c9 ad 3f 42 a0 21 3f 6c dd c3 bc 75 21 25 3f
       1.357701 0.6313516 -0.023909293 0.64504176
000040 2b d5 b1 3f b4 52 b5 3f 2c 63 70 be d6 1f 1c bf
       1.3893179 1.4165864 -0.23475331 -0.6098608
000050 cd 5c 7a c0 8a 8a 98 3f ba 35 86 3e 7b f3 1e 3f
       -3.911914 1.1917279 0.26212865 0.6209027
000060 9d b0 72 3f 1e 1f 2c bf 87 28 31 c0 88 60 22 3f
       0.9480074 -0.6723498 -2.7680986 0.63428545
000070 9e 7b c0 3f f4 a9 93 3e 71 5e 8a 3e 40 02 00 bf
       1.5037725 0.288406 0.27025178 -0.50003433
000080 4b db c3 bf ad 38 17 bf f9 23 d3 be 74 2c 0e c0
       -1.5301298 -0.59070855 -0.41238382 -2.2214632
000090 2f 74 66 3f b1 74 e6 3f 0c 75 17 bf 1a 7e 1e 3c
       0.9002103 1.8004361 -0.59162974 0.00967362
0000a0 79 d2 9c 3f 2d cc 87 3d 2c 7c 7a bf 48 5e 13 40
       1.2251731 0.0663074 -0.9784572 2.3026295
0000b0 50 21 fc 3e b6 62 26 bf 8d e9 41 3f 64 52 77 bf
       0.49244165 -0.6499437 0.75746995 -0.96610093
0000c0 07 5c 21 3d 36 6a d2 be 90 e4 2a 3f 33 b9 7c 3f
       0.039394405 -0.41096658 0.6675501 0.9872009
0000d0 ac f4 47 be 46 95 77 bf 88 86 2e c0 68 55 5f 3f
       -0.19526929 -0.9671215 -2.7269611 0.87239695
0000e0 14 c1 8e 3f 40 91 4c 3f 60 56 28 bf ab 32 92 be
       1.1152673 0.79909134 -0.657568 -0.28554282
0000f0 3d 99 ec 3d d3 9e 3c 3f f8 8f 2a bf cc 98 b5 be
       0.115526654 0.73679847 -0.6662593 -0.35468137
000100 a7 04 eb be bb 7a 77 3e 1d 97 c1 c0 fb 8d b0 bd
       -0.45901987 0.24167912 -6.0496964 -0.086208306
000110 ee a7 38 3f 6b 41 72 be 72 c7 bd 3f 56 a3 af 3e
       0.7213124 -0.23657767 1.4826491 0.34304303
000120 3c 2d 9e 3e 09 57 0f 3f 48 5e 98 bf d5 f6 66 be
       0.30893886 0.5599218 -1.1903772 -0.22555096
000130 99 8d 7c bf bb 4c 8e 3e e4 46 08 bf d6 af 8f 3e
       -0.9865356 0.27792916 -0.5323317 0.2806384
000140 5a 12 d7 3d 39 e4 96 3f 44 19 cc bf c9 c7 ad be
       0.10501547 1.1788398 -1.594521 -0.33941486
000150 2f 81 87 be b4 9f 2b 3f 07 5d d9 bf ab 41 a0 3f
       -0.26465747 0.6704056 -1.6981515 1.252004
000160 b1 98 e8 be e3 07 6a bf 2f 55 a2 bd 2c 6b 65 3f
       -0.45428994 -0.91418284 -0.07926404 0.89616656
000170 2d 04 04 3f c9 62 da 3f 56 05 9a be e8 95 c6 3b
       0.5156887 1.7061397 -0.30082196 0.0060603507
000180 70 97 0b 3e 81 a9 0d c0 f0 03 19 3f d0 8e 89 bd
       0.13631988 -2.2134707 0.59771633 -0.067166924
000190 4f 28 9a 3f 01 45 fe be 66 a5 c3 bd e9 91 1e be
       1.2043551 -0.4966202 -0.095530316 -0.15485348
0001a0 07 53 5c 3f dc 18 86 3f b6 e1 67 3f 23 53 16 bf
       0.8606419 1.0476336 0.9057878 -0.58720607
0001b0 0a 69 93 3e 86 f2 7a 3e c3 9e 04 3e 53 83 ba 3f
       0.28791076 0.24506578 0.12951188 1.4571327
0001c0 28 7e 17 3d 69 75 67 3f 3a d3 ec 3e 7e 6b 5c bf
       0.036985546 0.9041353 0.46254903 -0.8610152
0001d0 1e 16 f2 3e c1 e9 12 be 05 cf 94 3f 9b 30 80 bf
       0.472825 -0.14346983 1.1625677 -1.0014833
0001e0 17 a0 e5 be 0d 93 8a bf 19 0a 7e 3f 80 4b da bd
       -0.448487 -1.0826126 0.9923416 -0.10658932
0001f0 18 07 03 c0 d3 e1 f4 3e 0b 0e 74 3f c3 ae 56 c0
       -2.047308 0.4782854 0.9533393 -3.3544166

network.3.weight f4 [64, 128]
000000 a1 a6 64 3f 4c 74 77 3f b7 7b e0 3e ba 55 fa 3e
       0.89316756 0.9666183 0.43844387 0.4889353
000010 aa 15 5d 3f ed f0 48 bf ca 8f ba 3e ea db 6f 3f
       0.8636118 -0.78492624 0.36437827 0.9369494
000020 ac 4a a8 bf 35 22 70 3e b2 c0 a4 3e 00 0a 90 3e
       -1.3147788 0.23450549 0.32178265 0.2813263
000030 9e 00 90 bf 59 6b 74 bf 8f 46 fa 3d 3a e2 2f bf
       -1.1250188 -0.954763 0.12220489 -0.6870457
000040 aa 8c e9 be 0d c2 4f bf 83 be bc 3e 4f ff 8e 3f
       -0.4561513 -0.81155473 0.368641 1.1171664
000050 39 00 e6 3e f5 b8 a9 3f 62 1d 01 3e 7e ca 75 3f
       0.44922045 1.325957 0.12608865 0.96012104
000060 d6 c7 57 3e 10 1a 93 3e 46 21 f9 3e bf 21 da bf
       0.21072325 0.28730822 0.48658198 -1.7041548
000070 14 1c 89 bf 67 0b 86 3f e7 ea a8 3f 9a e5 cf 3e
       -1.0711694 1.047223 1.3196687 0.4060486
000080 02 fb 53 3f 58 3e 4f 3f 8c 9c 61 3f 3a f9 88 be
       0.8280488 0.80954504 0.88129497 -0.26752645
000090 eb 29 53 3e 84 d9 7b bf 56 6f 51 3f 5c 22 2b 3e
       0.20621459 -0.9837878 0.8181051 0.16712326
0000a0 51 fb 37 bf 29 2d 4f 3f 4a 97 c3 3e a5 6b a4 bf
       -0.71867853 0.80928284 0.38201362 -1.284535
0000b0 14 db ce be 1c 6b 29 3e 84 39 72 bf 47 c4 ca 3e
       -0.40401518 0.16544765 -0.9461901 0.39602873
0000c0 fd 5f 5f bf 29 24 69 3f 19 5c 55 3f c2 ed 39 be
       -0.8725584 0.910708 0.83343655 -0.18157104
0000d0 7f 07 9e 3e 63 8c 37 3f b0 ee d0 3e ea 59 04 bf
       0.30865094 0.7169859 0.40807104 -0.516997
0000e0 3d 6a 1c bf 59 71 dc be 54 70 3b 3f 39 6c 27 3f
       -0.61099607 -0.43055227 0.73218274 0.6539951
0000f0 7c e2 8f 3e be 06 6d bf 18 8e 21 3f 63 ff 3c 3f
       0.2810248 -0.9258841 0.6310744 0.7382719
000100 6a 64 f5 3e 74 0c 45 3f 92 0b 08 3f 1c dc 5b 3f
       0.47928172 0.76972127 0.53142655 0.85882735
000110 b3 9c 40 3f af 8a 06 3f 06 72 83 bf 13 49 8c bf
       0.75239104 0.52555364 -1.0269172 -1.09598
000120 77 ad 01 bf ac f3 c4 bf c9 85 e7 3e 63 66 8f 3e
       -0.5065531 -1.5386863 0.45219257 0.28007802
000130 0d d5 18 3f e1 89 92 3f 80 22 11 3f be 25 5a 3f
       0.5970009 1.1448327 0.5669327 0.8521384
000140 17 f6 6c 3f 36 8c 8a be 2f 6e 5b 3f 5c e2 06 3f
       0.92563003 -0.27060097 0.85715 0.52689147
000150 17 90 14 3d a7 ad f5 3e 5f 48 3a 3e 49 27 61 3f
       0.036270227 0.4798405 0.1819167 0.8795057
000160 0a 7c 5c 3f 9b 80 86 3f 8b 9e 86 3f 10 a2 1a bf
       0.8612677 1.0507997 1.0517133 -0.6040354
000170 4a 7d 58 3e 2b 9d 6d bf b8 8a 13 3f 23 79 b9 bf
       0.21141544 -0.92817944 0.57633543 -1.4490093
000180 6f a0 78 3e 8c 02 bf 3e 6c 3a ba be 51 7f 9d 3d
       0.2427995 0.3730663 -0.36372697 0.07690299
000190 87 eb 85 bf fe b6 94 bf aa 1f 96 be 28 54 e4 be
       -1.0462502 -1.1618345 -0.29321033 -0.44595456
0001a0 c6 d3 d5 be ea 01 89 bf a0 8e 58 bf 54 40 a4 3f
       -0.41763133 -1.0703709 -0.8459263 1.2832131
0001b0 fe 6b 22 3f 08 86 37 3e 48 a6 9b 3f c4 67 ad bf
       0.63446033 0.17922223 1.216012 -1.3547292
0001c0 f4 69 a8 3e 38 83 0e 3e f5 60 6b bf 85 dc 87 3f
       0.32893336 0.13917243 -0.9194482 1.0614172
0001d0 31 b7 af bf 18 0c ae bf 72 46 4a be 0f eb 9a 3e
       -1.372778 -1.3597441 -0.19753435 0.3025746
0001e0 35 43 e7 bf 00 ac 24 3f 7a d7 84 bd 03 16 7e 3e
       -1.8067385 0.6432495 -0.064864114 0.24813084
0001f0 2f fc 4f 3e 9a fe 6b bf 2e dc bc bf ef 21 5d 3f
       0.20311044 -0.92185366 -1.4754694 0.86379904
000200 af 7e 67 3e f9 0d 8e 3f 19 5d fc 3f f2 1c 97 3d
       0.2260692 1.1098014 1.9715911 0.07378568
000210 a0 f6 4d be 6b 9a 02 3f ea 9f 44 be f1 6f bb 3f
       -0.20113611 0.51016873 -0.19201627 1.4643537
000220 14 8a 71 3f 85 e7 85 bf 34 1e ad 3e be 58 28 3e
       0.94351315 -1.0461279 0.33812106 0.16440102
000230 6b 9a bb 3e 75 81 f1 be 52 0b 31 bf 76 fe ac bd
       0.3664125 -0.4716908 -0.691579 -0.08446972
000240 b5 aa de 3d 08 c7 06 3e 59 ba 5d 3e 8b f0 95 be
       0.108724035 0.13161862 0.21653117 -0.29285082
000250 b7 38 25 be 42 37 a5 bf d3 30 82 3e 9e cd cd be
       -0.16134916 -1.2907488 0.25427875 -0.40195936
000260 c2 c2 2b 3d c0 50 26 bf 7b 01 a7 3e 7c 21 3b be
       0.041933782 -0.64966965 0.32618317 -0.18274492
000270 8d f3 d2 3e e4 7a 8e bf 68 f1 3b 3e d8 64 75 bf
       0.4120144 -1.1131253 0.18353808 -0.95857
000280 b2 61 f7 be 3b d1 71 be 91 e6 06 bf 82 39 42 3f
       -0.48316723 -0.23614971 -0.52695566 0.75869
000290 7c 2a 2b 3f 21 52 02 3f 34 94 28 bf d8 a9 3b 3f
       0.668617 0.5090657 -0.6585114 0.73306036
0002a0 58 13 bb 3f 8e 7b 27 bf 1e 0d 44 be 55 f6 66 be
       1.4615278 -0.65422904 -0.19145629 -0.22554906
0002b0 55 47 83 3f cf 6b a8 3e bf 87 26 bf 97 b4 17 3e
       1.0256144 0.3289475 -0.6505088 0.14814983
0002c0 0f 0a 1e 3f c1 67 76 bf 3d a4 cf be cc 34 5e 3e
       0.617341 -0.96252066 -0.4055499 0.21699828
0002d0 2c 69 96 bb 82 9a 34 bf 0f c1 80 3e e6 a1 3c 3e
       -0.004590174 -0.7054826 0.25147292 0.18421134
0002e0 f7 3f b8 3e 36 4f 82 bd 04 7a d4 bd 27 8d 83 3f
       0.359863 -0.063627645 -0.10374835 1.0277451
0002f0 c4 e2 c1 3e 55 0d cd 3e 5f 1c a1 be 1c fa 3f be
       0.3786832 0.40049234 -0.31466958 -0.18747753
000300 5c fa 5f bf 3e 57 f6 3f 1b 12 4b bd 6d 53 fb 3e
       -0.87491393 1.9245374 -0.049577814 0.49087086
000310 f3 a4 27 3d 9d 53 61 bc 94 2a 23 3f c2 a1 90 3d
       0.040928792 -0.013752845 0.63736844 0.07062103
000320 d6 f5 79 bf c2 ce 01 3f d8 4f 0d 3e 54 86 42 bf
       -0.9764074 0.5070611 0.13799989 -0.7598622
000330 3b 5b f4 be ec 1c cb 3f 0f 7d c6 bd b3 a0 05 bf
       -0.47725853 1.5868201 -0.09691822 -0.5219833
000340 e3 1f a2 3f e6 7e c2 be 7d c7 bd bb 14 c7 e0 be
       1.2665981 -0.3798744 -0.005791603 -0.43901885
000350 a3 01 f4 3e 9f 32 80 bf 61 76 0d be 32 a8 aa bd
       0.476575 -1.0015448 -0.13814689 -0.08332862
000360 49 14 78 bf 02 31 96 be 15 96 14 3f db 7e c0 3f
       -0.9690595 -0.29334265 0.58041507 1.5038713
000370 a3 c1 9f bf ec 6e 11 3f 19 c5 0c bf 59 95 eb be
       -1.2480968 0.5680988 -0.5498825 -0.4601238
000380 f4 b4 60 be ba 7f 47 be 66 55 2c 3e 0b 07 e2 3f
       -0.21944028 -0.19482318 0.16829452 1.7658399
000390 19 da 87 3e 42 b8 70 bf a3 5a ab 3f 67 99 8d 3f
       0.26533583 -0.94031155 1.3387035 1.106244
0003a0 7a 58 07 3f f4 51 6c bf cb 09 87 3e fe 5c ed bd
       0.5286938 -0.9231255 0.2637466 -0.115900025
0003b0 95 b4 36 3e 1d 2e e6 be c3 4f 08 3f 3b 3b b3 3e
       0.17842324 -0.44957057 0.53246707 0.35006127
0003c0 ab 6e f3 be 69 4a 80 3d fb be e2 3f c7 59 ac be
       -0.4754537 0.062641926 1.7714533 -0.33662245
0003d0 fc 44 44 be 45 df d7 3e a0 72 00 3f 2f a0 39 bf
       -0.1916694 0.4216253 0.50174904 -0.72510046
0003e0 78 57 28 3f 75 1e 1c bf 72 c5 f8 3e 86 00 e1 bd
       0.65758467 -0.60983974 0.4858814 -0.10986428
0003f0 ab e8 4c 3e 2f cd bc 3e 0a 38 31 3e 32 2d f4 be
       0.20010631 0.36875293 0.17306533 -0.4769073

network.3.bias f4 [64]
000000 79 f5 f9 bd 17 6a 2b 3f fa d8 3a bf 75 5e ca 3f
       -0.12205023 0.66958755 -0.7298733 1.5810076
000010 78 77 b0 3f c7 2e 21 3f 2e 20 71 40 52 38 47 3f
       1.3786459 0.62962 3.767589 0.7782031
000020 83 8e cd 3c 2d 82 2a 3e f5 37 3f bd 65 be 1c 3f
       0.025092369 0.1665122 -0.046684224 0.6122802
000030 55 d9 a0 bf 25 3b 30 3f 09 69 69 3f d7 62 7e 40
       -1.2566324 0.6884025 0.91175896 3.9747827
000040 dd 72 a3 3e 61 26 14 3f 4f ca c0 be 9b 6f 3a 3f
       0.3192357 0.5787106 -0.3765435 0.72826546
000050 c4 58 17 41 73 c4 8e 3e 96 e0 3f 3f ac 8f 14 3f
       9.459171 0.27884254 0.74952066 0.58031726
000060 cd b6 70 bf 7c dc 13 3f 76 62 30 3f 9e 22 8c 40
       -0.9402893 0.5775831 0.6890024 4.3792257
000070 13 31 91 40 7c dc 30 40 e3 8d 06 3f b4 88 25 3f
       4.5372405 2.7634573 0.5256025 0.6466172
000080 8e 02 1b 3f 1a 59 c1 be 9a 41 3c bf aa 3a 7a 3e
       0.60550773 -0.37763292 -0.735376 0.24436441
000090 20 a3 95 3e 1a 3a 5b 3f d1 3b 54 bf e1 f2 87 3e
       0.29226017 0.8563553 -0.8290377 0.2655249
0000a0 5e 15 14 3f d7 f8 62 bf 89 d3 87 3f 0d 6d 6d bf
       0.57845104 -0.8866095 1.061143 -0.92744523
0000b0 59 3f de bf 35 c6 fa 3d be fe 4b 3e 17 53 3b be
       -1.7363082 0.12244836 0.19921395 -0.18293415
0000c0 6b c8 c6 bf ec c7 07 40 e0 7f 67 bf b9 66 ae bf
       -1.5529913 2.1215773 -0.90429497 -1.3625098
0000d0 0e ad 79 bf 11 5b 14 3f 5f db ed 3e 58 2a 8c 40
       -0.97529685 0.57951456 0.4645643 4.380169
0000e0 55 d4 6e 3f 9f 1f fd be b5 92 b8 3f 49 6a a5 bf
       0.9329274 -0.49438187 1.4419771 -1.2923061
0000f0 01 8b cc bf 5a de 03 41 0e e3 0e 3f e5 4f 7b 3e
       -1.5979921 8.241785 0.5581521 0.24542196

network.5.weight f4 [64]
000000 90 36 73 40 1d ec e2 3f 74 1a 56 40 67 d2 48 40
       3.8002052 1.7728306 3.3453646 3.137842
000010 71 be ca 3f 61 20 17 40 3f 6c 23 40 b3 36 3d 40
       1.5839368 2.3613513 2.5534818 2.9564636
000020 04 55 a3 3f 01 0d 4c 3f 19 d1 b5 3f 1a 60 10 40
       1.276032 0.7970734 1.4204437 2.2558656
000030 c6 75 84 40 bc e9 35 40 b4 f3 e9 3f ab f3 44 40
       4.1393766 2.842391 1.8277497 3.0773723
000040 7a 58 aa 3f 5c 44 19 40 11 eb 8a 3f c2 ba 22 40
       1.3308251 2.3947973 1.0852987 2.5426488
000050 ed c2 19 41 70 74 16 40 fc 44 2f 40 52 95 10 40
       9.610089 2.3508568 2.7385855 2.2591138
000060 9f be 73 40 d4 82 ee 3f 87 2f 25 40 94 d1 df 3f
       3.8085096 1.8633676 2.5810258 1.7485833
000070 0b 24 4b 40 d5 6f 40 40 1b 2f 8c 3f da c0 19 40
       3.174075 3.0068257 1.0951875 2.4023957
000080 57 a0 15 40 7a 15 bb 3f 3c 02 77 40 71 08 ba 3f
       2.3379114 1.4615929 3.8595114 1.4533826
000090 f0 2b ab 3f d1 6b 0b 40 60 79 86 40 43 33 14 40
       1.3372784 2.1784556 4.2023163 2.3156288
0000a0 e8 a0 18 40 b3 c6 71 40 33 ef f8 3f 4d c2 79 40
       2.384821 3.7777526 1.9447998 3.9024842
0000b0 9e 98 90 40 52 3f 94 3f fa b6 d9 3f 80 7a bd 3e
       4.51863 1.1581824 1.7008965 0.37007523
0000c0 7f 99 60 40 29 30 cb 3f 65 23 9e 40 8f a5 88 40
       3.5093687 1.5874072 4.9418206 4.27021
0000d0 5a d4 66 40 f7 f5 1c 40 6d 77 d7 3f df 70 f9 3f
       3.606711 2.4525125 1.6833321 1.948757
0000e0 eb 45 0a 40 1c 92 5e 40 47 36 ed 3f 20 d6 85 40
       2.1605175 3.4776678 1.8532189 4.1823883
0000f0 17 ec 8d 40 5c 8f e4 40 cb 02 19 40 b1 b8 de 3e
       4.4350696 7.1425 2.3907955 0.43500283

network.5.bias f4 [64]
000000 5f 25 df be ed 3b 96 bf 93 6b e9 be ba 8c 93 bf
       -0.435832 -1.1737038 -0.45589885 -1.1527321
000010 ed 45 ad bf e0 0c 39 bf 1a 87 6e bf 6f 09 10 bf
       -1.3536965 -0.7228527 -0.931749 -0.56264395
000020 87 c0 b0 bf f1 76 8d bf c0 c5 29 c0 79 1e 50 bf
       -1.3808755 -1.1051923 -2.6526947 -0.812965
000030 cc a3 07 bf 6c e6 25 bf 0c 19 5c bf ca 8d e1 bf
       -0.5298431 -0.6480472 -0.8597572 -1.7621396
000040 9e 7c a6 bf b3 91 43 bf d3 14 96 bf e3 ed 1f bf
       -1.300678 -0.76394194 -1.1725105 -0.6247236
000050 1d 3d 6f bf 3b e6 07 bf f2 c7 2d c0 1f 43 56 bf
       -0.93452626 -0.5308568 -2.7153287 -0.8369617
000060 81 51 02 bf bc ba 82 bf d3 a9 22 bf 30 f0 c9 bf
       -0.50905615 -1.0213237 -0.6354038 -1.5776424
000070 c9 9d 7c bf be ba 33 bf 74 d3 a2 bf 50 73 2a bf
       -0.9867826 -0.7020682 -1.272078 -0.665822
000080 44 2c 3c bf 97 32 ad bf 4c c8 0f bf e2 79 d8 bf
       -0.73505044 -1.3531064 -0.56165004 -1.6912196
000090 1b 61 58 bf aa ee a6 bf 7a c1 1b bf 56 15 fb be
       -0.8452317 -1.3041584 -0.60842097 -0.49039716
0000a0 88 5c 43 bf be df 00 bf 38 8d f8 bf 69 16 06 bf
       -0.76313066 -0.50341403 -1.9418097 -0.52377945
0000b0 35 81 c0 be 86 ee bd bf 69 b7 7e bf bd 8d f5 bf
       -0.37598577 -1.4838417 -0.9949861 -1.918388
0000c0 f8 24 f4 be 85 c0 ec bf 54 10 9a be 99 13 01 bf
       -0.47684455 -1.8496252 -0.30090582 -0.5042053
0000d0 aa 1c 0f bf 31 6c 39 bf b4 0c c3 bf 7d 17 fb bf
       -0.5590311 -0.7243071 -1.5238252 -1.9616543
0000e0 14 c3 ba bf d2 de dd bf c9 ef be bf 60 4b fc be
       -1.4590783 -1.7333624 -1.4916927 -0.49276257
0000f0 ba 37 04 bf 2d 7f 94 bf 8c 46 35 bf 92 48 cc bf
       -0.5164753 -1.1601311 -0.7081077 -1.5959647

network.5.running_mean f4 [64]
000000 0a 37 aa 42 da b4 a6 42 16 5c 87 42 49 c8 c1 41
       85.1075 83.353226 67.679855 24.222795
000010 38 13 8d 41 2f 02 3e 42 9f 25 1d 41 89 b7 c7 41
       17.634384 47.502132 9.821685 24.964617
000020 1a 1a e4 41 68 4b 07 3e 1e 5a cd 40 6e af 44 42
       28.512745 0.13212359 6.4172506 49.171318
000030 cd e4 9b 42 96 5a 4d 42 c2 23 3b 41 e1 fc 08 42
       77.94688 51.338463 11.69623 34.246952
000040 c6 b9 22 42 93 e8 71 42 e6 58 3c 41 6a 09 2d 42
       40.68142 60.477123 11.771704 43.259193
000050 59 43 74 41 a8 f8 8b 42 a9 08 11 42 1b 25 5b 42
       15.266442 69.98566 36.258457 54.786236
000060 fd 3e 9d 42 2b ec 9a 41 07 c3 47 42 3e 92 d4 41
       78.623024 19.365316 49.940456 26.571407
000070 cc 0f 02 42 06 2d 9a 40 f3 6a 41 40 41 5b 35 42
       32.515427 4.817996 3.0221527 45.339115
000080 5c 20 53 42 06 a6 c7 41 a1 33 92 42 d7 4e ef 40
       52.7816 24.956066 73.10084 7.478374
000090 22 2d c8 41 cf 38 9a 41 3c fb 97 42 cf 37 88 42
       25.022038 19.277739 75.99069 68.109
0000a0 82 24 52 42 dc 42 91 42 af db f5 41 b0 81 90 42
       52.535652 72.630585 30.732267 72.253296
0000b0 de 30 84 42 17 56 82 3e c4 54 54 42 11 f1 4d 41
       66.09544 0.25456306 53.08278 12.871354
0000c0 9b 77 72 42 31 78 75 41 a3 18 a3 42 f4 c4 9f 42
       60.616802 15.341844 81.54812 79.884674
0000d0 77 f4 a8 42 8a 37 57 42 ad f6 be 41 ee b9 04 42
       84.47747 53.804237 23.870447 33.181572
0000e0 f1 8f cc 41 f6 e1 8b 41 13 b5 d1 3f f5 8e 8d 42
       25.570284 17.485332 1.6383384 70.77921
0000f0 af e8 83 42 19 e3 d2 41 9c f7 41 42 53 d5 e7 23
       65.95446 26.360888 48.491806 2.5135417e-17

network.5.running_var f4 [64]
000000 c5 0f fa 46 5d 19 00 46 e1 d2 9a 46 09 fe 8b 44
       32007.885 8198.341 19817.44 1119.9386
000010 e9 60 aa 44 05 e9 11 46 56 39 d1 44 bc ce 29 45
       1363.0284 9338.255 1673.7917 2716.921
000020 21 c8 e0 44 7d c3 06 40 a3 eb aa 43 51 ad 1b 46
       1798.254 2.1056817 341.8409 9963.329
000030 a5 d0 d0 46 07 28 28 46 0c a5 29 45 dc 8c ab 44
       26728.322 10762.007 2714.3154 1372.4019
000040 9a dd 5e 45 3f cf 6d 46 c9 04 de 43 a0 f0 ef 45
       3565.85 15219.812 444.03738 7678.078
000050 e8 90 16 44 b3 14 97 46 c1 3b f7 44 02 94 41 46
       602.26416 19338.35 1977.8673 12389.002
000060 ce 69 ce 46 76 1b 1d 45 9f 81 20 46 b8 18 a0 44
       26420.902 2513.7163 10272.405 1280.7725
000070 e8 fc dd 44 3a e5 93 43 6b 5a d3 42 75 0d 04 46
       1775.9033 295.79083 105.6766 8451.364
000080 91 bc 33 46 4a 9e be 44 a1 12 b3 46 c0 fe 8d 43
       11503.142 1524.9465 22921.314 283.99023
000090 a4 63 a8 44 f6 09 57 44 25 31 c2 46 8f 24 8f 46
       1347.1138 860.15564 24856.572 18322.28
0000a0 b3 52 33 46 c3 54 ab 46 26 d3 12 45 50 50 aa 46
       11476.675 21930.38 2349.1968 21800.156
0000b0 c5 3e 94 46 4f 56 55 40 53 d1 3a 46 84 00 02 44
       18975.385 3.3333929 11956.331 520.00806
0000c0 d9 07 80 46 0c 19 03 44 af 73 ef 46 bd 70 dc 46
       16387.924 524.39136 30649.842 28216.37
0000d0 22 65 f2 46 c1 3f 39 46 ff b5 af 44 cc 5c af 44
       31026.566 11855.938 1405.6874 1402.8999
0000e0 99 b0 cc 44 79 16 61 44 f3 fe 8a 42 00 de aa 46
       1637.5187 900.35114 69.49795 21871.0
0000f0 d3 a3 96 46 5a 90 9d 44 11 34 19 46 22 7f 99 22
       19281.912 1260.511 9805.017 4.160534e-18

network.6.weight f4 [32, 64]
000000 a3 86 3c c0 76 f1 e0 bc 44 16 16 c0 7f 51 fd be
       -2.9457176 -0.027458888 -2.345109 -0.4947624
000010 ef 74 d2 3c f3 24 6c bf 04 bb 9b 3e 3f b8 d4 bf
       0.025690524 -0.9224388 0.3041612 -1.6618727
000020 0d 95 f0 be b0 91 66 be 89 b2 04 bf 78 eb 8f bf
       -0.46988717 -0.22516513 -0.51834923 -1.1243734
000030 ab 37 52 c0 f1 b4 ad bf 1c 63 d0 3d 49 14 76 bf
       -3.2846477 -1.3570844 0.101751536 -0.961247
000040 23 25 52 be 2b db 66 bf c9 2f d1 be 70 47 81 bf
       -0.20521979 -0.90178174 -0.4085677 -1.0099926
000050 b2 07 13 be 5b 66 7e bf 0b c3 5b bf 37 05 81 bf
       -0.14358404 -0.9937493 -0.85844487 -1.0079716
000060 a7 00 27 c0 f6 77 79 be 75 66 97 bf 0c 91 d4 be
       -2.6094148 -0.24362168 -1.1828142 -0.41516912
000070 56 99 34 be b9 c3 d9 bf 0b 01 cb be af 81 ac bf
       -0.17636618 -1.7012855 -0.39649233 -1.3477076
000080 6d cb 86 bf 6f 02 fd be 52 18 1e c0 dd 93 64 bf
       -1.0530831 -0.4941592 -2.4702344 -0.8928812
000090 ae 37 82 be 59 ff d8 3e 45 1c 29 c0 5c 88 8b bf
       -0.25433105 0.42382315 -2.6423504 -1.0900989
0000a0 0a 0f 5a bf 9f 10 23 c0 e2 df 0d bf 3e 16 27 c0
       -0.851792 -2.5478895 -0.55419743 -2.6107326
0000b0 ec 22 21 c0 f2 cc 38 bf d1 1a 3a bf 5b c0 81 bf
       -2.5177565 -0.7218772 -0.7269717 -1.0136827
0000c0 04 76 f7 bf 9b c9 15 bf a3 67 29 c0 74 93 44 c0
       -1.933289 -0.5851075 -2.6469505 -3.0714998
0000d0 ae 03 63 c0 b6 1f 9d bf 4d 62 10 bf d2 f8 0f bf
       -3.5470996 -1.2275302 -0.56399995 -0.56239045
0000e0 de c6 2f bf f7 70 c0 be 10 49 67 bf dc d1 51 c0
       -0.6866282 -0.37586185 -0.9034586 -3.2784338
0000f0 bc 14 5e c0 f5 18 43 bf 8b f9 76 bf 40 97 6d bf
       -3.4700155 -0.76209956 -0.9647452 -0.92808914
000100 7f 13 85 3f d9 d0 3f be 5c ec 3c 3f 95 97 07 c0
       1.0396575 -0.18732013 0.73798156 -2.1186268
000110 c3 2d 1a bf 29 01 ec be bf c8 c6 bf 0a e9 bf be
       -0.60226077 -0.46094635 -1.5530013 -0.37482482
000120 a2 65 09 bf 39 43 0f be 52 1b bc be c1 86 f5 be
       -0.53670704 -0.13990487 -0.36739594 -0.47954372
000130 22 6a 90 3f a1 f0 fe be da 57 8e bf 0c 70 a1 bf
       1.1282389 -0.4979296 -1.112056 -1.2612319
000140 ba 2b 9b be ae 46 35 bf fc 4d 33 be 77 c4 00 bf
       -0.30306798 -0.70810974 -0.17510217 -0.5029978
000150 99 97 de be ba b7 10 be 7f ab 28 bf ab a7 f1 be
       -0.43475035 -0.14132586 -0.6588668 -0.47198233
000160 4e 0f 57 3f dc 3e 47 bf f6 af 37 bf 88 f5 4a bf
       0.8400773 -0.7783029 -0.7175287 -0.792809
000170 dd 67 37 bf d3 54 87 be e5 da d8 bd 8a 80 f0 be
       -0.7164286 -0.26431903 -0.10588626 -0.46973068
000180 4b 57 07 bf ce 71 51 be 90 bd 28 3f b9 4e 9c be
       -0.52867573 -0.2045357 0.6591425 -0.3052881
000190 68 a4 cc be 3c 90 51 bf ce 34 30 3f 57 14 57 be
       -0.39969182 -0.8186071 0.68830574 -0.21003853
0001a0 8a 77 02 bf 1a 58 70 3f b3 0c 03 bf 28 a5 4c 3f
       -0.5096365 0.9388443 -0.5119125 0.7993951
0001b0 28 a7 c7 3f f6 a3 4e bd ee d6 a6 be 38 79 c1 be
       1.5597887 -0.050449334 -0.32585853 -0.37787795
0001c0 ec 74 9b 3f 53 ea 17 bf ab 1c 14 40 5b 64 8a 3f
       1.2145057 -0.59341925 2.3142498 1.0811876
0001d0 54 48 26 3f 05 4f ce be 7f 2d f6 be 8d 65 f8 be
       0.64954114 -0.40294662 -0.48081586 -0.48514977
0001e0 93 4f 99 be 1e e3 c3 be 69 6f 2a be c5 dd 89 3f
       -0.29943523 -0.38259214 -0.16644062 1.0770804
0001f0 6c b3 bd 3f f7 4c 17 bf 38 56 36 bf fe 50 e3 bd
       1.482038 -0.59101814 -0.7122531 -0.110994324
000200 08 a1 73 3f c1 b2 f7 bd 23 9e 04 3f fa fb 00 c0
       0.9516759 -0.120946415 0.518038 -2.0153794
000210 65 f1 1e bf bf bd 10 bf 70 bb a8 bf d1 8a 03 bf
       -0.6208709 -0.5653953 -1.3182201 -0.5138369
000220 ed c9 05 bf b6 62 44 be c9 66 8f be 1d 8f 2b bf
       -0.5226124 -0.1917828 -0.28008106 -0.6701525
000230 ab b9 84 3f 11 b0 16 bf 3f e8 8c bf 9e a0 7f bf
       1.0369161 -0.58862406 -1.1008376 -0.9985446
000240 ac 78 bf be 22 f0 64 bf 5d 0b 4d be 4b 2c 26 bf
       -0.37396753 -0.89428914 -0.20023866 -0.64911336
000250 92 10 d9 be ec 51 1b be ce b0 39 bf 09 b7 2b bf
       -0.42395455 -0.1516797 -0.7253541 -0.67076164
000260 ef 67 34 3f 2c 69 4c bf 8d 49 15 bf c6 b0 41 bf
       0.7047109 -0.7984798 -0.58315355 -0.7566036
000270 67 5c 09 bf 83 70 74 be 18 57 24 be ed b4 1a bf
       -0.5365662 -0.23871045 -0.16048849 -0.6043232
000280 82 cb 05 bf 9b 46 a6 be 57 ea 1d 3f ff af a4 be
       -0.52263653 -0.32475743 0.616857 -0.32165524
000290 f9 25 ca be 2f 38 3a bf 05 39 2c 3f 76 10 13 be
       -0.39482096 -0.7274198 0.67274505 -0.14361748
0002a0 26 44 0b bf 6c 45 4c 3f 72 01 0f bf 5f f0 3d 3f
       -0.5440086 0.7979343 -0.5586158 0.741949
0002b0 79 d6 d5 3f ff d7 1b 3e 53 10 ba be 48 68 8f be
       1.6706077 0.15219115 -0.3634058 -0.28009248
0002c0 6d c6 94 3f d6 df b1 be 2e f8 09 40 e9 c7 89 3f
       1.1623055 -0.34741086 2.1557727 1.0764133
0002d0 b6 6f e1 3e 0f 17 0e bf d3 e8 1d bf 36 6c af be
       0.4403054 -0.55503935 -0.61683387 -0.34262246
0002e0 4f a3 a6 be d1 35 b9 be 60 5d 9d bc 3c 6b 85 3f
       -0.3254647 -0.3617387 -0.019209564 1.042335
0002f0 8b 4b b2 3f 42 ca 17 bf cd 2c 31 bf 81 ab a4 3c
       1.3929304 -0.59292996 -0.69208986 0.02010131
000300 06 2d 15 c0 9a 6d b5 3e 39 d6 e8 bf ad aa b2 be
       -2.330873 0.35435182 -1.8190376 -0.3489584
000310 3c 49 86 3c de 13 81 bf ee 67 c4 3e 7d 9d f3 bf
       0.016392343 -1.0084188 0.38360542 -1.9032437
000320 31 2f b8 be e3 ee 9f be 02 54 bb be 6c 5d 8a bf
       -0.35973504 -0.31236944 -0.3658753 -1.080976
000330 18 42 35 c0 cb 57 ba bf b1 05 b7 3d 68 87 97 bf
       -2.832159 -1.4558042 0.089366324 -1.1838198
000340 5a fa 08 3c 4a 9d 80 bf bc f2 35 be 22 7f 92 bf
       0.00836047 -1.0048001 -0.17768377 -1.1445048
000350 be b4 01 bc 5a e9 7c bf 58 b0 34 bf 54 cc 6b bf
       -0.007916627 -0.98793566 -0.7058158 -0.92108655
000360 de 24 18 c0 22 9c 1b be 6a ea a2 bf 2b 14 9d be
       -2.3772502 -0.15196279 -1.2727787 -0.3067945
000370 9a 96 bd be 28 41 eb bf 35 ac d7 be 5e 18 a8 bf
       -0.37028962 -1.8379259 -0.4212357 -1.3132436
000380 ba e4 88 bf 4e 6d 75 be 6c 42 07 c0 d1 8d 2d bf
       -1.0694802 -0.23967478 -2.113429 -0.6779452
000390 9b f6 7b be 2f b6 32 3e 73 90 11 c0 13 a5 8a bf
       -0.24605791 0.1745231 -2.2744415 -1.0831627
0003a0 2b 8c 6a bf 6c af 17 c0 7a 90 24 bf c4 cf 17 c0
       -0.9162013 -2.370082 -0.64282954 -2.372056
0003b0 48 f3 ee bf 30 84 39 bf 4c e2 40 bf 79 96 42 bf
       -1.8667994 -0.7246733 -0.753453 -0.76010853
0003c0 84 dd eb bf 93 c4 06 bf 2f ff 0a c0 a0 b1 30 c0
       -1.8426976 -0.526437 -2.1718252 -2.7608414
0003d0 91 97 43 c0 af f9 98 bf 45 f8 fc be 50 e7 12 bf
       -3.0561259 -1.1951197 -0.49408165 -0.57384205
0003e0 25 ef 80 be a2 24 7e be d9 a2 92 bf 82 ba 37 c0
       -0.25182453 -0.24818662 -1.1455947 -2.8707585
0003f0 6a 8b 37 c0 75 4b 3f bf da 63 76 bf 79 1a 54 bf
       -2.8678842 -0.74724513 -0.9624611 -0.82852894

network.6.bias f4 [32]
000000 bb f5 75 3f c4 d3 77 3e 63 84 20 3e b7 66 54 3f
       0.9607808 0.24201876 0.15675502 0.8296923
000010 ae ea 45 3e 66 1f 95 3f 37 05 36 3f 7e 01 61 3f
       0.19327804 1.1650207 0.7110171 0.878929
000020 cf d4 8d 3e c9 f9 e6 3d 9e 52 1f 3f e9 c6 e2 3d
       0.27701423 0.112781115 0.6223544 0.11073095
000030 9e 8b 58 3e 41 b3 af 3d 3f 94 67 3f 0e c4 8e 3e
       0.2114701 0.08579112 0.9046058 0.27883953
000040 8f b0 34 3e 72 a4 80 3e cb ff 41 3f fb 4d 5e 3e
       0.17645477 0.25125462 0.75780934 0.21709435
000050 7c aa fd 3d 4e 1e 72 bd ce 95 85 3e 00 6e 3c 3f
       0.12386033 -0.059110932 0.26090854 0.73605347
000060 60 36 43 3e 78 34 48 3f 22 8a 84 3f fb f0 34 3e
       0.19063711 0.7820506 1.0354655 0.17670052
000070 70 e6 2e 3f 14 2a 55 3f 30 f2 80 3e ef 99 1a 3e
       0.6832037 0.8326733 0.25184774 0.15097784

network.8.weight f4 [1, 32]
000000 7d c7 9f bf e6 69 02 3f bf 9d f5 3e df ac 89 bf
       -1.2482754 0.5094284 0.47971913 -1.0755881
000010 55 f5 b4 3f 88 e9 a0 bf 40 72 a0 bf a9 a3 b4 bf
       1.4137369 -1.2571268 -1.2534866 -1.4112445
000020 55 52 fa 3e d7 96 05 3f 19 33 53 bf 94 23 0f 3f
       0.4889094 0.5218329 -0.82499844 0.5591366
000030 e1 3d ea 3e 27 a3 06 3f 1c 5f b8 bf e0 f0 df 3e
       0.45750335 0.525927 -1.4404025 0.4373846
000040 02 f5 06 3f e3 38 01 3f d6 4d cc 3e 4c 67 01 3f
       0.527176 0.5047743 0.39903134 0.50548244
000050 f6 ce eb 3e 7b 38 2c bd 97 76 df 3e 20 72 8e bf
       0.46056336 -0.04204605 0.43645164 -1.1128578
000060 ba 26 0a 3f 1a 51 a9 bf a7 7f 96 bf ac 54 f5 3e
       0.5396534 -1.3227875 -1.1757706 0.47916162
000070 71 9e a7 bf 60 b0 b4 bf f2 dd f7 3e a3 c4 f7 3e
       -1.3095227 -1.4116325 0.48411518 0.4839221

exp_avg f4 [128, 117]
000000 a0 c5 34 3c ce 96 d9 3b a0 1d 92 3b f8 db 96 3b
       0.011033446 0.006640292 0.004459098 0.004603859
000010 2c ca 8c 3b 87 fd 8d 3b f2 15 04 3b b4 89 53 3b
       0.0042965617 0.0043332013 0.0020154682 0.0032278122
000020 43 e1 d4 3a f8 ff 7a 3b 15 cd 55 3b 32 17 71 3b
       0.001624145 0.0038299542 0.003262346 0.0036787507
000030 3d 08 77 3b 31 a0 54 bc a5 20 27 bc 87 e2 2e 3b
       0.003769412 -0.012977646 -0.010200654 0.0026685314
000040 ba 23 03 3b 61 f2 1b b9 69 cd 7e 39 e4 78 c0 3a
       0.0020010308 -0.00014872245 0.00024299849 0.0014684466
000050 3d 2c 9d 3b af d2 ee ba cd cb 87 b9 19 9f 4c 3a
       0.0047965334 -0.0018220748 -0.0002590105 0.000780569
000060 2b d9 a5 3a 49 d0 91 3a 1a 74 29 ba 54 d8 02 3b
       0.0012653222 0.0011124696 -0.0006464139 0.0019965367
000070 a0 9d 45 3a b1 2b 97 3a c6 f0 3c 3a e7 17 35 3b
       0.00075384416 0.0011533407 0.0007207509 0.0027632655
000080 e2 04 69 3a f3 fa 24 ba 57 90 96 ba 49 51 b6 3a
       0.0008888972 -0.0006293498 -0.0011487108 0.0013909723
000090 d9 fa 5a 3a bf 43 d7 ba 32 d8 99 3a 3c be b3 3b
       0.0008353419 -0.0016423388 0.0011737405 0.005485324
0000a0 0c 65 8c 3a 74 6e 6d 3a 7e 50 05 3c 90 7e 7d 3b
       0.0010711267 0.00090572913 0.008136867 0.0038680173
0000b0 02 76 e0 3a 80 bd d7 39 4d 2b 84 3a 81 88 0f 3b
       0.0017125013 0.00041149184 0.0010083705 0.002190143
0000c0 03 b1 6f 3a 77 b7 20 bb 65 e6 34 3a dd 1a 4c 3a
       0.0009143503 -0.0024523416 0.00069007865 0.00077859854
0000d0 33 5e 06 3a 9e 8d 18 3a 8b 75 1e ba 26 f4 6d 3b
       0.0005125731 0.00058194424 -0.0006044737 0.0036308854
0000e0 c9 5c 5d ba 10 df 90 3a 54 25 d0 3a 14 75 0f b9
       -0.0008444307 0.0011052806 0.0015880265 -0.00013681158
0000f0 a1 f5 92 3a 2e a6 2a 3a e4 e5 45 3a 9f 84 af 3a
       0.0011212119 0.0006509748 0.000754921 0.0013390965
000100 d7 25 21 3a f2 a2 c0 b9 2f 2e 0c 3a ba 8a 69 3a
       0.0006147301 -0.00036742497 0.0005347458 0.00089089165
000110 e2 b9 ee 3a 7c 90 87 ba 6f 41 a5 bb 98 80 2f 3a
       0.0018213356 -0.0010342742 -0.0050432007 0.0006694882
000120 89 87 63 3a d9 85 32 3a 95 d1 40 3a 6f 76 5b 39
       0.0008679559 0.0006810106 0.0007355449 0.00020929587
000130 f4 16 aa 3a e1 77 cd 3a e2 aa 9f 3a 5d 03 5c 3b
       0.0012976811 0.0015675985 0.0012181664 0.003357134
000140 35 d1 a7 39 7e 93 71 3a 09 bd 0c ba 29 f9 34 3b
       0.00032008594 0.00092153985 -0.00053687446 0.0027614331
000150 44 ae d4 b8 26 0b 20 3a 24 be 5a 3b 13 b1 96 ba
       -0.00010141407 0.0006105177 0.0033377493 -0.0011496864
000160 2f 68 74 3b 29 2c 91 3a 36 3d f9 3a 8d 65 83 39
       0.0037293544 0.0011075783 0.0019015435 0.00025061928
000170 28 2e 95 3b 48 ed b8 3b 9e ff 2c 3a 3f 80 6c ba
       0.0045526214 0.0056435205 0.0006599369 -0.00090217957
000180 92 af 2c 3a ce 4b aa 3a 7b 88 81 39 e0 87 8e 3a
       0.00065874413 0.0012992562 0.00024706483 0.0010874234
000190 5c b1 1c bd e8 9f 16 3a 5d ee 60 3a 5c 92 ea b9
       -0.03825508 0.0005745874 0.0008580441 -0.00044741004
0001a0 85 3b 54 3a 80 ef 71 3a 0d 27 c1 ba 97 f7 2e 3a
       0.00080960273 0.00092291087 -0.001473637 0.0006674467
0001b0 28 e8 b1 3a fc d2 c1 3a 90 05 c4 39 eb 21 32 3b
       0.0013573216 0.001478761 0.00037388178 0.0027180861
0001c0 4a 54 3e bd 73 0a af 3a a3 b1 ce ba fb e4 09 3b
       -0.046467103 0.0013354555 -0.0015769493 0.0021041024
0001d0 1c 73 26 bb 91 38 0a 3c 18 7b 89 bc 13 58 5e bb
       -0.00253982 0.008436338 -0.016782328 -0.0033927008
0001e0 e4 49 48 bb a4 01 65 bb 35 44 62 bb 65 59 87 39
       -0.003056162 -0.0034943605 -0.0034525518 0.0002581581
0001f0 9e 88 2a 3b 7b 45 db bb cf bc 50 bc 71 51 99 3b
       0.0026021372 -0.0066916323 -0.012740328 0.004678898
000200 0e 45 ea 39 18 e0 95 bb 62 e5 2b 3b ef 73 6d b8
       0.00044683408 -0.004573833 0.0026229252 -5.6613175e-05
000210 a8 68 7a 3c cf 93 82 ba 32 da 67 ba af f5 25 bc
       0.015283741 -0.0009962263 -0.00088444643 -0.010129376
000220 64 f4 98 3a ea 74 2e ba 7f 00 99 3a 33 28 88 3a
       0.0011669514 -0.0006654995 0.0011673121 0.0010387957
000230 fa 31 cd 39 25 66 99 3a 19 d4 ad 3b 4b d7 cb b9
       0.00039137882 0.0011703415 0.005304825 -0.00038879583
000240 96 f4 85 bb 7b b9 98 3a 24 24 9c 3a 1a 69 5b bb
       -0.004087995 0.0011651957 0.0011912626 -0.0033479393
000250 8e ce 97 3a 7f aa 99 3a 47 cd 99 3a f5 66 42 3a
       0.0011581944 0.0011723785 0.0011734151 0.00074158545
000260 d7 ee 9f bb d3 62 95 3a 75 db 97 3a a4 b0 24 bd
       -0.004880767 0.001139725 0.0011585789 -0.04020752
000270 6a 09 97 3a c4 ee 98 3a 3e c0 a4 ba 2f a4 98 3a
       0.0011523191 0.0011667837 -0.00125695 0.001164561
000280 0f 9e 98 3a 13 e3 94 3a 02 d1 21 bc b0 9d 98 3a
       0.0011643785 0.0011359177 -0.0098764915 0.0011643674
000290 64 d7 a2 3a 98 67 9d 3b 76 6d 08 3d 47 4f 5a 3b
       0.001242381 0.004803609 0.033307515 0.0033311413
0002a0 19 b1 98 3a a9 1b c8 3a 74 d6 85 3a c8 3a 98 3a
       0.0011649459 0.0015267032 0.0010211007 0.0011614198
0002b0 75 e7 97 3a 38 b6 f0 bb 35 35 6a b9 86 af 97 3a
       0.0011589365 -0.007345941 -0.000223358 0.0011572696
0002c0 9c df 85 3b 96 27 d2 3b 25 d5 98 3a 8f 4a 99 3a
       0.004085494 0.0064134104 0.0011660202 0.0011695194
0002d0 8e d8 90 3a fa d3 98 3a 48 21 90 3a 46 a1 5a 3a
       0.0011050866 0.0011659854 0.0010996247 0.00083400717
0002e0 33 0d 91 3a df d8 99 3a 0b 37 eb ba 01 3a 97 3a
       0.0011066556 0.0011737606 -0.0017945481 0.0011537672
0002f0 c7 6b 98 3a 04 a2 98 3a 70 d8 a0 3b 8e ff c5 ba
       0.00116288 0.0011644964 0.004908614 -0.0015106068
000300 c7 38 98 3a f7 cc 6a 3b f0 a8 98 3a f7 f3 97 3a
       0.0011613601 0.0035827735 0.0011647027 0.0011593093
000310 21 47 77 b9 7c 61 94 3a 0a ca 77 3a c4 3e 94 ba
       -0.00023582253 0.0011320557 0.00094524084 -0.001131021
000320 f2 cd 9d 3a 7f 1f 98 3a 62 be 97 3a 00 c8 9d 3a
       0.0012039526 0.0011606066 0.0011577124 0.0012037754
000330 50 6f 23 3b 25 0f 98 3a 22 f5 74 3a 0f 89 d4 3a
       0.0024938174 0.0011601193 0.0009344389 0.0016215163
000340 4f ef 80 ba 75 55 99 3a 5b 6e 97 3a f3 32 98 3a
       -0.0009836945 0.0011698442 0.0011553274 0.0011611864
000350 d2 d0 97 3a fa bb 97 3a 1f d1 0a bd 0c 84 98 3a
       0.0011582619 0.0011576407 -0.03389084 0.0011636033
000360 df 98 d1 b9 33 ff 97 3a d4 bf 04 3b 31 cb 97 3a
       -0.00039977484 0.0011596441 0.002025594 0.0011580942
000370 be b1 a4 ba 79 fa 3f bb d2 33 99 3a d7 ce 97 3a
       -0.0012565178 -0.002929358 0.0011688417 0.0011582029
000380 3f ac 98 3a 52 15 99 3a ea b8 53 3a 63 7d 98 3a
       0.0011648013 0.0011679328 0.00080765656 0.0011634048
000390 d0 04 99 3a 37 fd 97 3a f7 74 99 3a bb c0 01 bc
       0.0011674408 0.001159585 0.0011707832 -0.007919486
0003a0 5d bf 97 3a 63 4f d2 bb 5d 5c 4c bb 9b 7e 34 3a
       0.0011577416 -0.006418155 -0.0031182982 0.0006885321
0003b0 ab df e1 bb e2 f8 e4 bb 55 78 e4 bb c7 97 e6 bb
       -0.0068931184 -0.006987677 -0.0069723525 -0.0070371362
0003c0 ca 49 81 bb 30 5e 03 bb 5d 1a 11 ba 6a 06 83 bb
       -0.003945564 -0.0020045154 -0.00055352395 -0.0039985674
0003d0 32 10 8a bb 60 5e a0 ba bd 78 56 ba 4f 49 5c bb
       -0.0042133564 -0.0012235157 -0.00081814436 -0.0033613031
0003e0 db dc b0 ba 7f 24 9b 3c 6e e1 04 bb 64 11 9e ba
       -0.0013493554 0.018938301 -0.0020275968 -0.0012059626
0003f0 7d 0b 3f 39 d6 89 e8 b9 44 a0 3b ba 89 3f 2e ba
       0.00018219459 -0.00044353184 -0.00071573653 -0.0006647041

exp_avg_sq f4 [128, 117]
000000 93 d6 11 41 ee 92 cb 3f c2 98 a3 3d 2c 7c ac 3d
       9.114886 1.5904214 0.079881206 0.084221214
000010 3a 19 ad 3d 02 4d 9e 3d 72 f4 88 40 9c 24 57 3d
       0.08452077 0.07729532 4.2798395 0.052525148
000020 a9 9a 27 3d ba 53 03 3d ed 98 89 3d f8 de 7d 3f
       0.04091898 0.03206227 0.067186214 0.9916835
000030 20 da fc 40 9a 04 1c 41 9d fb 22 42 7c 87 0c 3d
       7.9016266 9.751123 40.745716 0.034308895
000040 b0 2e 56 40 6d e0 7c 3b 22 07 b5 3b 7a 8e 54 40
       3.3465996 0.0038585917 0.005524532 3.321196
000050 20 f2 c7 3b c7 4b 8e 3b 26 62 85 3b f6 3e 7a 3b
       0.0061018616 0.0043425295 0.004070538 0.00381845
000060 69 34 10 3c 37 52 96 3c 99 dd 34 3d 83 04 94 3c
       0.008801558 0.01834975 0.044156644 0.018068558
000070 49 93 00 3c 54 b3 2f 3c 36 ff 77 3b 40 e8 77 3b
       0.0078476155 0.0107239075 0.0037841327 0.003782764
000080 8b d8 81 3b 38 26 92 3b 13 d1 8d 3b 41 d5 20 41
       0.0039625815 0.0044601224 0.004327902 10.052064
000090 e1 72 59 3d d1 d4 78 3b 39 60 d4 3b 24 57 35 3d
       0.053088073 0.0037968645 0.006481197 0.044272557
0000a0 76 11 9a 3c cc be 76 3b 7c df 7e 3c 55 23 93 3d
       0.018807154 0.0037650345 0.0155562125 0.071844734
0000b0 1b 55 1c 42 d0 ec 81 3b e1 42 83 3b 8e 7b 52 3b
       39.08311 0.003964998 0.0040057753 0.0032117101
0000c0 da e7 9f 3b 3b 82 10 3c 4b f9 77 3b 9c 90 7d 3b
       0.004879934 0.008820112 0.00378378 0.003869093
0000d0 6d 6a 80 3b 60 68 7a 3b ed 20 a3 3b d3 10 7c 3b
       0.003918937 0.0038209185 0.0049782903 0.0038462176
0000e0 65 5c 7c 3b 51 9e 81 3b 45 2c 79 3b 21 87 d1 3b
       0.003850722 0.0039556404 0.0038020771 0.0063942824
0000f0 92 74 0a 3c 5b d0 75 3b 02 2d 77 3b aa 88 fa 3a
       0.008450644 0.0037508223 0.0037716036 0.0019114215
000100 28 9d 78 3b b6 5a 3e 3b 3a 61 eb 40 b1 24 7e 3c
       0.003793547 0.0029045767 7.3556185 0.015511678
000110 ff 0d 0c 3d 7f 42 a3 3b ea 4b af 3c 4a c8 b1 3b
       0.034193035 0.004982292 0.021398503 0.0054254876
000120 92 6d b4 3b a2 98 77 3b 23 ce 87 3c 17 15 00 3c
       0.005506226 0.0037780185 0.016577786 0.007817528
000130 a2 ee ae 3b ed 2d 34 3b 69 4c 8a 3b d6 d7 fe 3a
       0.005338506 0.0027493194 0.0042205346 0.0019442986
000140 c5 f6 0a 3c 42 00 93 3b 36 0b dc 3b 86 90 80 3b
       0.008481686 0.0044861147 0.0067152036 0.0039234785
000150 9f 22 dc 3b 59 73 76 3b 44 e3 56 3b 53 02 c7 3b
       0.0067179943 0.0037605374 0.003278927 0.006073275
000160 c7 f8 2c 3c 61 c5 86 3b 71 4f b3 3b 8a 88 79 3b
       0.01055736 0.004112885 0.0054721166 0.0038075768
000170 77 82 c5 3d ed c0 be 41 47 f2 75 3b 27 fc 3a 3c
       0.09644025 23.844202 0.0037528442 0.011412657
000180 bd 60 76 3b bb 9d a1 3b 79 24 79 3b ca 68 28 3d
       0.0037594282 0.004932133 0.0038016124 0.04111556
000190 7a 6f a8 3c 1e f8 c9 3b 3d 8f 8b 3b 22 b4 8d 3c
       0.020560969 0.006163611 0.0042590187 0.017297808
0001a0 fc 24 76 3b 39 bd 13 3c a8 19 0e 3c 2a fe 74 3b
       0.0037558665 0.009017282 0.008673109 0.003738294
0001b0 ca f7 c7 3b 1b 6d 77 3b 6b dc be 3a 6a 22 38 3c
       0.006102537 0.003775424 0.0014561539 0.011238674
0001c0 7c d8 95 42 60 09 ca 3b 47 95 e6 3b 63 b5 90 3b
       74.92282 0.0061656684 0.007036838 0.004416154
0001d0 1b 33 7c 3b 0c 78 18 3f d7 c7 3a 3f d6 a1 03 3f
       0.003848261 0.59558177 0.7296118 0.5141882
0001e0 1c 8c 06 3f 56 97 de 3e 01 59 9b 3e 58 fb 48 41
       0.5255754 0.43474835 0.30341342 12.561363
0001f0 6f b9 c9 3d 6d 47 c0 3d 1f 7e a8 3d 7b 20 be 3d
       0.09849822 0.093886234 0.08227181 0.09283539
000200 ee 4b 1d 3f 90 ae b4 3d ac 31 3f 40 44 0b 1a 3e
       0.61443985 0.08822358 2.9874067 0.1504336
000210 c9 e3 9e 3d 15 25 cb 40 69 da 0c 3c 19 6e ce 3c
       0.0775829 6.3482766 0.008596995 0.025198983
000220 08 06 ed 3b 0c 05 da 3c ba 05 ed 3b 77 5e 3c 3c
       0.007233385 0.026613735 0.0072333487 0.011497132
000230 4d da 62 3c 20 08 ed 3b 33 6b d9 3c ca c5 29 3c
       0.013845992 0.0072336346 0.026540374 0.010362098
000240 14 c9 02 3c 20 06 ed 3b 69 23 ed 3b ec 68 ae 3c
       0.007982511 0.007233396 0.0072368872 0.021290265
000250 e6 05 ed 3b da 09 ed 3b aa 09 ed 3b 04 34 ed 3b
       0.007233369 0.0072338404 0.007233818 0.0072388668
000260 a8 12 3a 40 3a 47 ed 3b e6 05 ed 3b 10 1b ab 3b
       2.9073887 0.007241157 0.007233369 0.005221732
000270 02 06 ed 3b bc 05 ed 3b d7 83 2e 3c cd 05 ed 3b
       0.007233382 0.0072333496 0.01065155 0.0072333575
000280 cd 05 ed 3b 5a 18 ed 3b a5 c0 51 3c cd 05 ed 3b
       0.0072333575 0.007235569 0.012802278 0.0072333575
000290 a3 52 ed 3b 17 94 17 3d 5c 1f 24 3d 9c b5 b7 3c
       0.007242517 0.037006464 0.04006897 0.022425465
0002a0 53 06 ed 3b 96 07 ed 3b e8 ec ee 3b e8 05 ed 3b
       0.00723342 0.0072335703 0.007291425 0.00723337
0002b0 ea 05 ed 3b 3a 03 00 3c ce 51 a7 3c e9 05 ed 3b
       0.007233371 0.007813269 0.02042475 0.0072333706
0002c0 2c 37 21 3c 9d 29 13 3d bf 05 ed 3b db 05 ed 3b
       0.009839814 0.035928357 0.007233351 0.007233364
0002d0 71 fe 02 3c e6 05 ed 3b bc c2 f1 3b b0 fa f0 41
       0.007995234 0.007233369 0.0073779505 30.122406
0002e0 44 57 29 3d 8f 08 ed 3b 4b c2 65 3c fd 05 ed 3b
       0.04134299 0.0072336863 0.014023374 0.00723338
0002f0 d9 05 ed 3b d0 05 ed 3b 66 05 25 3f b1 48 89 42
       0.007233363 0.007233359 0.6446136 68.641975
000300 e8 05 ed 3b 16 3e 1c 3c d9 05 ed 3b e6 05 ed 3b
       0.00723337 0.009536287 0.007233363 0.007233369
000310 64 10 31 3c 16 b7 48 3d f7 f6 ed 3b bc fc fe 3b
       0.0108071305 0.04900273 0.0072621065 0.007781593
000320 2a d8 eb 3b e2 05 ed 3b ed 05 ed 3b d7 44 ed 3b
       0.0071973996 0.0072333673 0.0072333724 0.0072408724
000330 dc c3 b6 3c f0 05 ed 3b 0b 31 ed 3b 2b b7 da 3c
       0.02231019 0.007233374 0.0072385124 0.02669867
000340 66 6d f8 3c 4b 10 ed 3b fd 05 ed 3b 10 06 ed 3b
       0.030325603 0.0072346083 0.00723338 0.0072333887
000350 e6 05 ed 3b ea 05 ed 3b b6 d0 c5 3c 9f 06 ed 3b
       0.007233369 0.007233371 0.024147373 0.0072334553
000360 04 e6 50 3d e6 05 ed 3b 94 a5 2a 3c e8 05 ed 3b
       0.05100061 0.007233369 0.010415453 0.00723337
000370 76 36 55 3c fc 3a ef 3b 1e 1a ed 3b e6 05 ed 3b
       0.013013473 0.0073007327 0.0072357794 0.007233369
000380 cd 05 ed 3b d1 05 ed 3b 0f 9f 13 3c d0 05 ed 3b
       0.0072333575 0.0072333594 0.0090100905 0.007233359
000390 b8 05 ed 3b e6 05 ed 3b c6 0e ed 3b bb 68 78 3c
       0.0072333477 0.007233369 0.007234427 0.015161688
0003a0 ea 05 ed 3b 5c 41 25 3c 53 03 52 3e f5 82 58 3d
       0.007233371 0.010086384 0.2050908 0.052859265
0003b0 b2 0e 99 3d f7 5c 5c 3d 40 e5 7c 3d 88 0b 81 3d
       0.07473506 0.053799596 0.061742067 0.063010275
0003c0 ae d4 48 3d 8a 78 22 3d 9c d8 a2 3d 1e 3f 22 3d
       0.049030952 0.039665736 0.07951471 0.039610974
0003d0 0e 4f 3f 3d 2e 15 84 3d a9 34 5d 3f 6d af 0c 40
       0.04670625 0.06449352 0.8640848 2.1982071
0003e0 d0 5b 48 3f 2e cc 22 3d e6 4c 22 3d 11 4d 77 3b
       0.78265095 0.039745502 0.039624117 0.0037735144
0003f0 e5 f7 78 3b 8c aa 6c 3b 90 d8 6b 3b 7f 92 6b 3b
       0.0037989554 0.0036112396 0.0035987236 0.0035945473
