output/best_demand_forecast_model.pth (torch, 324434 bytes, 29 tensors)

network.0.weight f4 [128, 119]
000000 21 18 93 3c 4a 62 38 3d df 72 86 3e fd 06 6f 3e
       0.017955841 0.04501561 0.26259515 0.2334251
000010 aa a7 89 be b9 22 57 be bb ed a5 be f7 a3 2d bf
       -0.2688573 -0.2100934 -0.32407936 -0.67828315
000020 4e 8c a2 3f 7b 70 02 bf bf 5e 10 bf 2e 0b b6 be
       1.2699068 -0.5095288 -0.5639457 -0.35555404
000030 45 9f ac bf 80 8e 1f bf e2 fc 75 bf 30 d9 2f bf
       -1.3486105 -0.6232681 -0.96088994 -0.68690777
000040 cf f4 57 bf 02 5f 29 bf 89 69 20 bf 5e c8 0d bf
       -0.84357923 -0.66160595 -0.62661034 -0.5538386
000050 eb 76 40 bf 6b 7b 2e bf bd a7 54 bf e3 49 33 bf
       -0.75181454 -0.6815707 -0.8306845 -0.7003462
000060 52 47 2e bf dd 30 4a bf 27 ae 0f bf b9 f3 4c bf
       -0.68077576 -0.7898081 -0.5612511 -0.8005939
000070 2b fe 66 bf 1e 87 46 bf 88 ef 4a bf b6 ee 59 bf
       -0.9023158 -0.7754992 -0.79271746 -0.8512987
000080 0a a3 47 bf 13 9c 51 bf a3 38 3f bf 90 5e 48 bf
       -0.7798315 -0.81878775 -0.74695796 -0.7826929
000090 47 0a 21 bf e1 75 46 bf 5f 72 30 bf 5e 71 30 bf
       -0.62906307 -0.7752362 -0.68924516 -0.68922985
0000a0 b3 2c 29 bf 42 06 36 bf 58 bb 3e bf 8e 96 61 bf
       -0.6608383 -0.711033 -0.74504614 -0.88120353
0000b0 0c d1 7b bf 86 1b 3d bf 6a 95 0f be ff 6b 3d bf
       -0.98365855 -0.7387012 -0.1402184 -0.73992914
0000c0 5e 44 43 bf 3f 61 5c bf 90 53 4d bf 93 8f 50 bf
       -0.76276195 -0.86085886 -0.8020563 -0.81469077
0000d0 a6 66 38 bf 14 ad 35 bf a1 90 2c bf 17 06 31 bf
       -0.7203163 -0.7096722 -0.67408186 -0.6914992
0000e0 63 2d 4f bf 06 c8 3e bf 84 95 2e bf f5 e5 39 bf
       -0.8092863 -0.7452396 -0.6819689 -0.7261651
0000f0 4e 71 60 bf 89 0a 4c bf 3d fc 4d bf 57 ff 33 bf
       -0.8767289 -0.79703575 -0.8046301 -0.7031149
000100 83 c0 1f bf 27 9d 66 bf 75 bb 35 bf 8e 7b 6e bf
       -0.62403125 -0.90083545 -0.7098916 -0.9315728
000110 96 9a 40 bf df 10 3c bf 13 f0 52 bf 2e 3e 5f bf
       -0.7523588 -0.73463243 -0.82397574 -0.87204254
000120 7c 77 28 bf 92 75 38 bf df 72 64 bf 4c 7e a3 bf
       -0.6580732 -0.720544 -0.8923778 -1.2772918
000130 06 06 41 bf fb b1 0e bf cd 34 34 bf d5 60 34 bf
       -0.75399816 -0.55740327 -0.7039307 -0.70460254
000140 05 3e b6 3d b7 1f 09 bf 09 aa 72 bf f6 6b 11 bf
       0.08898548 -0.5356402 -0.94790703 -0.5680536
000150 39 65 43 bf a8 63 23 bf 69 be 38 bf 30 69 46 bf
       -0.7632633 -0.6382394 -0.7216554 -0.77504253
000160 e2 3d 58 bf 82 31 91 bf f6 96 53 bf f7 c3 72 bf
       -0.84469426 -1.1343234 -0.82652223 -0.9483027
000170 89 39 5f bf 29 dd 54 bf be de 88 bf 28 00 6e bf
       -0.87197167 -0.83149964 -1.0692976 -0.9296899
000180 e4 91 17 bf be d0 31 bf 5d b2 3e bf 59 d1 47 bf
       -0.59206986 -0.6945914 -0.7449091 -0.78053814
000190 2b 29 4f bf 64 7d 2a bf 5f 5d 0e bf 95 e7 50 bf
       -0.8092219 -0.6659758 -0.55611223 -0.81603366
0001a0 88 86 34 bf f6 86 3a bf 70 b7 45 bf e5 ac 5a bf
       -0.7051778 -0.72862184 -0.7723303 -0.85420066
0001b0 57 78 42 bf 4f a6 54 bf f3 57 44 bf 11 f1 52 bf
       -0.75964874 -0.83066267 -0.766967 -0.8239909
0001c0 bd a7 34 bf 66 07 5c bf c8 5c 52 bf d1 63 3d bf
       -0.7056845 -0.8594879 -0.8217282 -0.7398043
0001d0 2f a8 55 bf 58 e8 59 bf 62 06 36 bf 8b 49 9a 3e
       -0.8345975 -0.85120153 -0.7110349 0.30134234
0001e0 d8 ff 92 bf 65 b5 51 be af 14 c8 be 56 30 d6 bf
       -1.1484327 -0.20479353 -0.3907828 -1.6733501
0001f0 36 5e d7 bf a2 3e d0 bf d7 16 dc bf 5d 95 a5 bf
       -1.6825626 -1.6269114 -1.719447 -1.2936207
000200 61 fb 9e bf cd 29 02 be 30 09 89 be 93 15 ab be
       -1.2420465 -0.12711258 -0.26764822 -0.33414897
000210 ca 03 55 bf 65 21 ea 3c 10 eb b0 be 05 e3 b1 be
       -0.83208907 0.028580377 -0.34554338 -0.34743515
000220 b3 43 9b bf 85 e3 1b bf 08 27 22 be 6c 5d 2a bf
       -1.2130035 -0.6089404 -0.15835202 -0.665488
000230 05 07 35 bf 78 a0 ae be e7 53 62 bf d1 85 08 bf
       -0.70713836 -0.34106803 -0.88409275 -0.5332919
000240 ec 0a 9f be 12 49 f8 be cd 9d 32 bf 85 45 75 be
       -0.3106302 -0.48493248 -0.69772035 -0.23952301
000250 8e 99 13 bf bf d2 5d bf a6 49 30 bd dd 60 06 bf
       -0.5765618 -0.866497 -0.043038987 -0.5249155
000260 5f 5b 74 bf a6 b4 13 bf 57 34 3c bf c6 94 b4 be
       -0.9545192 -0.5769752 -0.73517364 -0.35269755
000270 a1 b2 2d bf 7e 8d 2e bf 55 ab 43 be fe 60 06 bf
       -0.6785069 -0.6818465 -0.19108327 -0.5249175
000280 a5 94 5e bc 3a f2 df be 08 f4 30 bf 5b f4 4e bf
       -0.013585244 -0.43739492 -0.6912236 -0.80841607
000290 58 17 2e bf f2 8b a2 be ff b4 33 bf 57 0d d6 be
       -0.6800437 -0.31747395 -0.70198053 -0.41807052
0002a0 43 47 fe be 3b cc e7 bd e1 00 cc be ab eb 1a bf
       -0.49663743 -0.11318251 -0.3984442 -0.6051585
0002b0 e8 c6 c2 be 12 63 cb be 93 aa 60 bf 70 19 29 bf
       -0.38042378 -0.39724022 -0.87760276 -0.6605444
0002c0 b4 7f 15 bf f7 6b 8c bf d4 1f 17 be 8b e8 48 bf
       -0.58397985 -1.0970448 -0.14758235 -0.7847983
0002d0 aa f9 c8 3b 6c 2e 61 bf 22 75 c0 be 91 3f c6 be
       0.006133278 -0.8796146 -0.37589365 -0.38720372
0002e0 c4 3a 56 bf fc 22 eb be 90 a9 ea be 25 18 b0 be
       -0.8368342 -0.45925128 -0.4583249 -0.3439342
0002f0 6d 70 27 bf fb 44 f7 be 36 db 4d bf b4 1e 4e be
       -0.65405923 -0.48294815 -0.80412614 -0.201289
000300 fa bd ca be b5 1c 45 bf ec f1 56 bf 90 cc ec be
       -0.39598066 -0.7699693 -0.83962893 -0.4624982
000310 60 30 f9 be 97 f0 38 bf fd 9c 9c be 6e e2 a9 3d
       -0.4866972 -0.7224211 -0.30588523 0.08295141
000320 a9 97 32 bf 5b 65 12 bf 32 33 b2 be ea 19 39 bf
       -0.69762665 -0.57185906 -0.34804684 -0.72305167
000330 49 dc c5 be 9b 48 e8 be c3 66 7a bf 6e 42 02 bf
       -0.38644627 -0.45367894 -0.9781305 -0.50882614
000340 71 a3 55 bf ca 11 34 bf 0d 68 57 3d 82 c5 24 bf
       -0.83452517 -0.70339644 0.052589465 -0.64363873
000350 b7 62 1e bf f7 99 36 bf 06 41 ec be b3 18 55 bf
       -0.61869377 -0.7132868 -0.4614336 -0.83240813
000360 d4 2f 47 bf 12 70 5b bf 90 8e eb be 5c d6 46 bf
       -0.77807355 -0.8571788 -0.46007204 -0.77670836
000370 0c 0f 4a bf d3 20 08 bf 1c d2 3c bf 50 33 26 be
       -0.7892921 -0.53175086 -0.737581 -0.16230512
000380 3e d1 77 bf 68 e6 0f bf a5 be 47 bf 03 79 4c bd
       -0.96803653 -0.5621095 -0.78025275 -0.049920093
000390 70 b0 f7 be ff 4e ee be e0 ad d4 bd ef 65 40 be
       -0.483768 -0.46544644 -0.103847265 -0.18788885
0003a0 24 55 ce be fe 5d 2f bf ce 86 03 bf 08 dd 3a bf
       -0.40299332 -0.68502796 -0.5137757 -0.72993517
0003b0 05 cf bc be 4a 08 9d be c9 ed c9 3d 35 61 fe be
       -0.36876693 -0.30670387 0.09859807 -0.49683538
0003c0 b3 1b c4 bd a3 cb 11 bf f3 b4 e1 bf 78 91 e7 bf
       -0.09575596 -0.5695135 -1.7633346 -1.8091269
0003d0 3d 98 d0 bf 1d 31 ec bf 38 d5 99 bf 57 b9 41 bf
       -1.629646 -1.8452488 -1.2018194 -0.7567343
0003e0 7e 5b 85 bf 21 96 40 bf 35 9d 05 bf a1 b3 a2 be
       -1.0418546 -0.7522908 -0.52193004 -0.3177767
0003f0 31 b0 99 bf bd 6b 4e bf ab eb 4d bf 52 4d 6d bf
       -1.2006894 -0.80633146 -0.80437726 -0.92696106

network.0.bias f4 [128]
000000 cd 27 8b be dc 8c f2 3e dc 0c 26 3f 59 3f a3 3e
       -0.27178803 0.47373092 0.6486337 0.31884268
000010 6d 3e 62 3f 5a 2f 69 bf 6c 31 4b 3d d8 f0 25 be
       0.88376504 -0.9108788 0.04960768 -0.16205156
000020 1d 90 2b bf d5 d9 4a 3f 6a c1 14 3f c5 8a ca be
       -0.67016774 0.79238635 0.58107626 -0.39558998
000030 2b 28 4e bf fb c8 89 3e 9b 3e 90 be e0 1a 33 3f
       -0.8053004 0.26911148 -0.28172764 0.69962883
000040 70 1f 98 3e 18 22 e2 bf 17 33 5f 3f dd c7 3b bf
       0.29711485 -1.7666655 0.8718733 -0.7335184
000050 b1 03 6a bf 0b fa 46 3f 77 db 2e 3f 95 da 24 3e
       -0.9141188 0.77725285 0.68303627 0.16099007
000060 51 ed 05 3f ad e1 87 3c f2 cb 59 3f 4f 7f 0b 3f
       0.5231524 0.016587103 0.8507682 0.5449113
000070 18 50 81 3e 61 d6 07 bf e7 a1 15 3f 14 c7 40 3f
       0.2525642 -0.5306149 0.5845017 0.7530377
000080 60 19 06 3f cf 30 74 3e dc 6f 00 bf 81 58 08 3f
       0.5238247 0.23846744 -0.50170684 0.53260046
000090 81 32 8b bd e5 82 6c 3e 91 48 73 bf 43 25 4a bf
       -0.06796742 0.23096807 -0.950326 -0.78963107
0000a0 54 f7 b5 bc e2 22 22 3f cf e9 54 3e 79 38 55 3f
       -0.022212662 0.63334477 0.20792316 0.83289295
0000b0 03 9b f3 3e bf 8d 4c 3f 41 e4 be 3e 56 55 c7 3c
       0.47579202 0.7990379 0.3728352 0.024332684
0000c0 99 2c b6 3e fc 4b 36 3f 32 58 bc be 79 43 2f 3f
       0.355809 0.7120969 -0.36786038 0.6846233
0000d0 e8 a7 01 be 69 d1 bc 3d 4e c8 aa 3e 7a cd 00 3f
       -0.12661707 0.09219629 0.33355945 0.5031353
0000e0 0e d0 a4 bc 78 27 4a 3d cb f0 43 be 1d 1b da be
       -0.02011874 0.049354047 -0.19134824 -0.4259881
0000f0 6b 13 14 3e d6 97 98 3e 3b 27 92 3d 2e 97 b7 be
       0.14460532 0.29803342 0.07136389 -0.35857528
000100 37 ff f7 bd 68 ed 33 bf 54 74 5e be af 0c 70 bf
       -0.12109225 -0.7028413 -0.21724063 -0.93769354
000110 b4 62 46 3e 0a eb 0c be 54 7a a7 bf 01 fc b7 3e
       0.1937359 -0.13761535 -1.3084207 0.3593445
000120 a8 e2 95 bd 7c e0 a7 bd 33 e1 d6 3e b5 53 67 3f
       -0.07318622 -0.08197114 0.41968688 0.903621
000130 79 55 8f 3b d1 b9 97 3e f5 e8 d3 3d 3a 91 37 3f
       0.004374203 0.29633954 0.103471674 0.71705973
000140 7a 87 7d 3f 68 e1 bd be f0 c4 c4 3e b0 65 cb 3d
       0.99034846 -0.37086034 0.384315 0.09931505
000150 f1 d9 63 bc b2 a1 53 bf 88 0a 39 3f 9c 5e 38 3c
       -0.013906942 -0.826686 0.72281694 0.011253025
000160 db 1b 08 3f cf d3 64 be c8 72 92 3e 67 b6 1d bf
       0.53167504 -0.22346424 0.28603196 -0.6160645
000170 34 94 c9 3d 2c 9c 0e 3f 55 ce 10 bf 83 fc b5 ba
       0.09842721 0.5570705 -0.5656484 -0.0013884458
000180 dc 5a 0a 3f 13 80 92 be 92 fc 1f 3e 9b 2a d6 be
       0.5404489 -0.28613338 0.15623692 -0.4182938
000190 03 19 fe bd d9 45 fb 3e e0 3d 6a 3d c6 36 54 3e
       -0.12407114 0.49076727 0.057187915 0.2072402
0001a0 8d 64 5b 3e 55 12 ee be 01 08 42 3f 58 ab c3 3e
       0.21425076 -0.4649836 0.75793463 0.38216662
0001b0 34 fd 9c be 32 64 a8 bd 2a ac 31 bd 4c 27 1b 3e
       -0.3066193 -0.08222236 -0.04337708 0.1515171
0001c0 3c 76 93 bb 9b 65 dc 3e 68 cc b5 be 8b c1 6f 3e
       -0.0045001786 0.4304627 -0.35507512 0.23413675
0001d0 34 b8 4a bf 30 e2 a9 be 7a f3 2c 3d 72 4e 8f be
       -0.7918732 -0.3318038 0.042224385 -0.27989537
0001e0 3d 67 5e bf 46 e1 41 3f 2d 42 32 3f cf b3 7b 3e
       -0.8687628 0.75734365 0.69632226 0.2458031
0001f0 59 47 63 3e 34 6c 32 3f fa 04 f1 be 53 83 c1 3d
       0.22195186 0.69696355 -0.4707411 0.09448876

network.3.weight f4 [64, 128]
000000 a7 a5 46 bf b1 37 f6 be 92 2b 5d bf 36 41 dd 3e
       -0.77596515 -0.48089364 -0.8639461 0.43213814
000010 fd 50 5f 3f 19 f3 a5 3e 28 bc f8 be cb 77 0e 3d
       0.87232953 0.3241203 -0.48581052 0.034782212
000020 f6 96 96 3e dc b8 49 bf b5 62 27 bf 24 07 c3 3e
       0.2941205 -0.787977 -0.6538499 0.38091385
000030 4b dd a8 bd 35 39 1d 3f b7 88 62 bd ce bf e5 3e
       -0.08245333 0.61415416 -0.055306163 0.44872898
000040 7b 0c b1 be 84 2a cf bd 2b 4a 0b bf d4 64 a1 3d
       -0.34579834 -0.10115531 -0.54410046 0.078805596
000050 71 ae 97 bd 7f b1 0b bf 2f 14 3c bf 74 97 47 be
       -0.07406319 -0.5456771 -0.734683 -0.19491369
000060 9e 10 44 3f 78 8f 77 bd 9c 13 01 bf 53 a9 69 bf
       0.76587856 -0.060439557 -0.50420547 -0.91273993
000070 2a c9 3a bf 53 3f 6b 3e e1 73 2f bf ba e4 5b bf
       -0.729632 0.22973375 -0.6853619 -0.85895884
000080 0d e3 07 bf fa 1d 02 3f 2f 22 03 3e 67 33 23 bf
       -0.53080827 0.5082699 0.12806009 -0.6375031
000090 28 25 84 3e 1b 13 91 3e 2f 5e 21 be ee ff 46 3e
       0.25809598 0.2833489 -0.15758584 0.19433567
0000a0 d0 8e e9 3d 4a 77 2f bf 14 0e 2a bf c7 41 bc 3f
       0.114041924 -0.68541396 -0.6642773 1.4707574
0000b0 cc 86 24 bf 68 dc 67 bf 4e 26 a2 3e 48 de c2 3e
       -0.64268184 -0.9057069 0.3166985 0.38060212
0000c0 24 0e 55 3f dc 05 40 bf 9c 96 51 bf 0d 19 f3 be
       0.832247 -0.7500894 -0.81870437 -0.4748005
0000d0 01 a4 bf be 3f 31 de 3e fe 8d 21 3f 1d 40 23 bf
       -0.37429813 0.43396947 0.6310729 -0.63769704
0000e0 ea 5f b5 3e 83 ab 7c 3d 16 23 4c bf 80 db df 3e
       0.3542474 0.061687004 -0.79741037 0.43722153
0000f0 6f 0b 83 bf ff f1 7a 3f bc 7f d4 3e b4 eb 62 3e
       -1.0237864 0.98025507 0.41503704 0.22160226
000100 ea 9a 82 bf df 0d 06 3c a5 41 06 3f af 54 92 3e
       -1.0203526 0.008182018 0.52443916 0.28580233
000110 a7 27 ac be 28 57 b2 3e 7d 76 62 be 64 07 14 bf
       -0.33624002 0.3483212 -0.22115512 -0.5782378
000120 d3 80 f6 3e da e9 20 3e d4 af 39 bf ed 80 0a bf
       0.4814516 0.15714207 -0.7253392 -0.54102975
000130 41 4a 95 bf 90 bd 65 3f 6a 25 3f 3f d3 2d 2b 3f
       -1.1663285 0.89742374 0.74666464 0.668668
000140 67 56 25 bf e2 41 64 3e 4f 0b e1 be c7 a4 04 3f
       -0.64584965 0.22290757 -0.4395394 0.5181393
000150 9b ab 7c bf d5 be c2 bd 49 56 04 bf ee 0c 17 3e
       -0.9869935 -0.095090546 -0.5169416 0.14751026
000160 d5 40 48 bf 87 e3 88 3e c2 1a 55 bf 26 5f 10 bf
       -0.78223926 0.2673609 -0.83243954 -0.56395185
000170 24 c8 1c 3f d0 81 1e 3f a9 9b 2b bf f4 7c 6a be
       0.6124289 0.6191683 -0.67034394 -0.22899228
000180 4f b9 1a bf dd 7e 23 be 20 9b be 3e 1e fd ef 3e
       -0.6043901 -0.15966363 0.37227726 0.468728
000190 09 c2 2d 3f 6e 20 3a bf c4 cf 5c bf ac 03 8a bf
       0.678742 -0.72705734 -0.86254525 -1.078237
0001a0 35 3a 06 3f 1b 3f ea 3e 6b 13 1a bf 70 41 71 3f
       0.52432567 0.4575127 -0.6018588 0.94240475
0001b0 d6 58 8b bf 0f 86 14 3e a6 fa ad 3e 0e 2e db 3e
       -1.0886486 0.14504264 0.33980292 0.42808574
0001c0 aa 07 fa 3d 2f 68 56 bf 67 fe cf 3c 2c 5f 33 3f
       0.12208493 -0.8375272 0.025389863 0.70067096
0001d0 e4 17 90 3e 99 58 59 bf 8d d0 bf 3e f5 b9 0d 3f
       0.28143227 -0.84900814 0.374638 0.5536187
0001e0 28 79 2f be b9 f4 15 3f 1e a6 22 bf 9a 0a cf 3e
       -0.17136061 0.5857654 -0.63534725 0.40437776
0001f0 30 00 5e bf 8f bf 17 3f 19 d4 ea 3e 2e 0b a7 3e
       -0.86719036 0.5927667 0.45864943 0.32625717
000200 1f 6d c1 be 5d f7 11 be 0c 31 e2 be ca dd 9e 3e
       -0.37778565 -0.14254518 -0.44178045 0.31028587
000210 2f 85 de 3e 03 a0 83 bf df 51 26 3c 4f c8 f4 bd
       0.43460986 -1.0283207 0.0101513555 -0.11952268
000220 89 df fb be d7 86 b7 be df b2 ac be c5 1a 01 3f
       -0.4919398 -0.35845062 -0.33730218 0.5043147
000230 2f 5a 0d bf a9 aa d7 3e 63 ff c8 3d 10 45 fc 3e
       -0.55215734 0.4212239 0.09814336 0.4927144
000240 11 2e 7d be 6a 99 93 bf 25 d8 df bd 9c fd 8e be
       -0.24724604 -1.1531193 -0.10929898 -0.27927864
000250 cd 13 94 bf 60 6e dd be ef 08 d3 be 0a 9f 02 bf
       -1.1568543 -0.43248272 -0.41217753 -0.51023924
000260 d2 18 d0 3e 8f b1 4a 3f 9b e4 60 be 34 e7 79 be
       0.40643936 0.7917718 -0.21962206 -0.24404603
000270 be 81 d1 be fc 8d 20 bd 65 d5 37 bf 19 1e e3 be
       -0.40919298 -0.039197907 -0.7180999 -0.443589
000280 a9 9c 64 be 98 a9 1d 3e 3e 6a 48 bf 82 5a 44 bf
       -0.22325386 0.15396726 -0.7828711 -0.76700604
000290 32 05 97 bc 05 6f 2f 3e 87 ce 58 3e 5c 5b 64 3e
       -0.018435095 0.17132194 0.21172534 0.22300476
0002a0 3a ca c3 3a f4 4b f6 be 4c 1f 8c 3e 23 49 a2 3e
       0.0014937588 -0.48104823 0.27367628 0.31696424
0002b0 81 fb 8c be c4 37 6d be 5b f6 11 3f 59 4d cf 3e
       -0.27535632 -0.23165804 0.57016534 0.404887
0002c0 97 d1 89 3e 43 d2 40 bf a3 e1 6d be 59 b3 80 be
       0.26917717 -0.75320834 -0.23230605 -0.2513683
0002d0 5c 7c a2 be 2a 7e 74 bd 19 45 cd 3e f8 f6 ed be
       -0.31735504 -0.059690632 0.4009178 -0.46477485
0002e0 1d 73 74 3e fa 63 65 be 1d 2c 82 3b 1f ea 3e bf
       0.23872037 -0.2240142 0.003972544 -0.7457599
0002f0 ea c0 33 bd 94 0a 21 3f e6 26 04 3e fa eb 69 3e
       -0.04388515 0.62906766 0.12905464 0.22843924
000300 d9 0d 44 bc 19 6f 56 be a1 af ef bc 1a 99 b6 3d
       -0.011966192 -0.20940818 -0.029258551 0.089159206
000310 c5 f6 15 bf f0 ea 00 3f 87 cc a2 bf d5 21 0a bf
       -0.58579665 0.50358486 -1.2718667 -0.53957874
000320 ee 0d 43 3e 68 a6 cf 3d 72 a3 f1 be a9 9a 9f be
       0.19048283 0.10139161 -0.4719501 -0.31172684
000330 82 1a 1d bd 35 e2 3f 3f 4f 01 e9 3e 98 6a 1a 3f
       -0.038355358 0.7495454 0.4550881 0.603189
000340 e5 00 6f be 9b b3 03 be a9 3e 15 bf 2c d5 5f 3e
       -0.23340185 -0.12861483 -0.58298737 0.21858662
000350 26 ee a4 3d 61 4f df be 33 ca 39 3e 66 39 1c 3c
       0.08053236 -0.4361525 0.18143539 0.009535169
000360 8e 2b a1 3e ff 5f ff 3c bb ce 33 3e 5b 0c 74 be
       0.31478542 0.031173704 0.1755933 -0.23832838
000370 e7 89 4a 3f e1 79 7d 3f 18 94 dc be 30 8b d9 be
       0.7911667 0.990141 -0.43081737 -0.42489004
000380 e7 2c 46 bf 74 14 d4 3e b0 85 46 3e 2d 0b 86 3e
       -0.77412266 0.41421854 0.19386935 0.261804
000390 e7 d3 c6 3e 03 6f 39 be 78 55 0d 3d b6 1f 9d 3e
       0.38833544 -0.18108754 0.034505337 0.30688256
0003a0 38 26 7d 3e b7 08 70 be d3 95 01 bf 87 e4 90 3f
       0.2472161 -0.23440824 -0.5061924 1.1319741
0003b0 52 b3 12 be fc a8 85 3d 8b 54 9b bd 69 17 15 3c
       -0.14326218 0.06526372 -0.07584485 0.00909982
0003c0 77 8a b0 3b 6f ab b8 3e 20 f7 88 3e 90 34 1f 3f
       0.0053876 0.36068293 0.2675104 0.6218958
0003d0 2d 53 a6 be 65 7d dd bd 18 b3 26 3e d5 54 94 3d
       -0.32485333 -0.10814933 0.16279256 0.07242743
0003e0 6d 3f f2 be 19 88 d9 3e ad a2 1e bf b3 37 c2 3d
       -0.47314015 0.42486647 -0.61966974 0.0948328
0003f0 84 c7 4e 3d c8 21 56 3e 98 4e 90 be b2 35 4b be
       0.05048324 0.20911324 -0.28184962 -0.19844702

network.3.bias f4 [64]
000000 f6 d1 13 3d 97 95 89 3f 6f 44 a2 3d c5 82 d5 3e
       0.036088906 1.0748776 0.07923209 0.41701332
000010 f5 52 8a 3d 45 c3 b1 3f 46 20 1d 3e bc 65 bc bc
       0.06754104 1.3887717 0.15344343 -0.02299773
000020 5f 17 91 3f d9 91 cc bd 93 e5 33 3f 89 d5 93 3f
       1.1335257 -0.09988756 0.7027218 1.1549541
000030 d2 cf bb bd fd 23 af bd 0b 55 d7 3b 09 e5 3c 3c
       -0.09170498 -0.08551786 0.006571417 0.011529216
000040 97 00 73 3f bf 0e 60 bd f9 be 1a 3e 7a c8 e6 3e
       0.94922775 -0.054701563 0.15111913 0.45074826
000050 bf 34 0c 3e 7b 1c 15 3f 78 8f fc 3e c7 1c fe bd
       0.13691996 0.5824658 0.49328208 -0.124078326
000060 cf 2d 4d 3d ac a2 c3 3e df 46 39 3b 72 cb 81 3f
       0.050092515 0.38210046 0.0028271002 1.0140212
000070 fa 7d 09 40 bb 67 1b 3e 79 3b 03 3f 82 c7 06 3f
       2.148314 0.15176289 0.51262623 0.52648175
000080 60 0e a9 3c 07 56 83 3f f9 22 c1 3e f5 f4 7c 3f
       0.020636737 1.0260628 0.37721995 0.98811275
000090 99 bb 1f 3f 65 07 15 40 86 28 4d 3c 76 dd 89 40
       0.62395626 2.3285763 0.012521869 4.308284
0000a0 66 af 44 3f 0b 57 6e 3f 34 63 56 bc 5b 51 f5 bc
       0.76830137 0.9310157 -0.013085175 -0.02994602
0000b0 66 4e 7e 3e 46 c2 22 3f 4b 95 9b 3e f3 d9 db 3e
       0.24834594 0.6357769 0.3038734 0.4293972
0000c0 8a c5 cb 3b 95 f3 03 3b d5 c3 0a bc cc 64 e3 3e
       0.006218617 0.00201342 -0.008469542 0.4441284
0000d0 05 e5 2e 3d ec b0 49 3e 92 d8 87 3f 22 e1 21 3c
       0.04269888 0.19696397 1.0612967 0.009880336
0000e0 79 23 4e 3d ca b6 81 bb 51 62 43 bd 6d 2a 86 bd
       0.050326798 -0.0039585577 -0.047701184 -0.06551061
0000f0 fe 09 23 be 27 ac bd 3d cc 9a 6f bd d4 d9 61 bc
       -0.1592178 0.09261351 -0.058497235 -0.013784844

network.5.weight f4 [64]
000000 60 2b 1a 40 e9 1e c8 3f d8 92 54 40 3a 2e a2 3f
       2.4088974 1.5634433 3.3214626 1.2670357
000010 cd 0b 20 40 9e 6e 20 40 cb 18 30 3f 88 c8 36 40
       2.5007203 2.5067515 0.6878783 2.8559895
000020 37 2c e5 3f b1 71 71 3f 85 84 bd 3f c2 2c dc 3f
       1.7904118 0.94314104 1.4806067 1.7201159
000030 45 30 2b 40 98 37 2e 40 7f d9 38 40 13 f6 19 40
       2.6748211 2.7221432 2.888275 2.4056442
000040 a8 12 ca 3f d3 0f 36 40 aa 75 3c 40 d9 f3 d7 3f
       1.5786943 2.8447158 2.9446816 1.6871291
000050 17 9d 34 40 c7 15 ad 3f 7c 07 a9 3f da 2f 35 40
       2.822088 1.3522271 1.3205409 2.8310456
000060 70 80 74 3f 7f 62 c2 3f a7 6a 04 40 33 c6 a8 3f
       0.9550848 1.5186309 2.0690095 1.3185486
000070 64 62 ef 3f 4e fa ff 3f 5b ca 9e 3f 2e 64 a4 3f
       1.8701901 1.9998262 1.2405504 1.2843072
000080 10 1e 5c 40 bb 23 84 3f 01 cb 92 3f 20 68 da 3f
       3.4393349 1.0323404 1.1468202 1.7063026
000090 e5 3f ae 3f 1e f9 f3 3f b4 7a 47 3f 44 f5 2c 40
       1.3613249 1.90604 0.77921605 2.7024698
0000a0 57 50 4e 3f 09 6c d8 3f 83 a9 15 40 78 a4 72 3f
       0.8059134 1.690797 2.3384712 0.9478221
0000b0 25 5d ae 3f 2e 6e 0c 40 28 41 fe 3f e4 1e dc 3f
       1.3622175 2.1942248 1.9863634 1.7196927
0000c0 5a f9 1c 40 67 10 17 40 57 57 11 40 a5 69 b1 3f
       2.4527192 2.3603761 2.2709558 1.3860365
0000d0 0a f1 31 40 c3 f7 4b 40 af 1d e1 3f 76 44 0a 40
       2.7803369 3.1869972 1.7587184 2.1604285
0000e0 08 a2 36 40 d4 90 55 40 ae 37 38 40 a8 73 2e 40
       2.8536396 3.3369646 2.8783984 2.725809
0000f0 a1 24 b5 3f e2 f9 8d 3f 04 5d dc be f0 7f 24 40
       1.4151803 1.1091883 -0.43039715 2.5703087

network.5.bias f4 [64]
000000 2c 3d a1 3c 80 6d 98 bf 94 51 07 3e 98 70 75 bf
       0.01968249 -1.1908417 0.13214713 -0.9587493
000010 ff 44 c6 3c 16 b9 54 bf 59 c1 97 bf f6 ea c1 3d
       0.024202822 -0.8309492 -1.185588 0.09468643
000020 84 47 60 bf c4 e2 a0 bf 33 53 b1 bf 73 c0 88 bf
       -0.87609124 -1.2569203 -1.3853515 -1.0683731
000030 9c 16 af bc 71 36 9b 3d 7e 15 47 bc 15 03 4d 3b
       -0.021373086 0.07578743 -0.01215112 0.0031282355
000040 2d 80 9c bf 8b e0 2d 3d 6b 5a bc 3d 24 87 51 bf
       -1.2226616 0.04245047 0.09196933 -0.81846833
000050 f5 37 1d be f6 8e ac bf b8 72 a4 bf 4a d3 e5 3d
       -0.15353377 -1.3481128 -1.2847509 0.11221941
000060 de d7 87 bf a9 a6 a3 bf 6d 2f 9d bd 8a da 9e bf
       -1.0612752 -1.2785236 -0.076750614 -1.2410443
000070 bd b1 8b bf c8 f8 c7 bf 33 75 9d bf 4a c2 a6 bf
       -1.0913616 -1.5622797 -1.2301391 -1.3028042
000080 f5 67 c1 3d a3 23 97 bf e5 04 81 bf dc 89 5b bf
       0.09443656 -1.180775 -1.0079619 -0.8575723
000090 f0 16 98 bf 0c 49 82 bf dd 45 93 bf 3c d7 cf bf
       -1.1882 -1.0178542 -1.1505696 -1.6237559
0000a0 5b 77 99 bf 42 0e 52 bf 66 6b 34 bd b9 68 92 bf
       -1.1989549 -0.82053006 -0.044047736 -1.1438209
0000b0 81 d3 a0 bf 08 a1 4c bf 39 82 81 be b1 b7 56 bf
       -1.2564546 -0.79933214 -0.25294665 -0.8387404
0000c0 af e8 8b bc 22 20 d4 bd f2 0b 10 bd 2e c0 4b bf
       -0.017078726 -0.10357691 -0.035167642 -0.7959012
0000d0 13 9c 8b bd 3e 6a cf 3d 34 73 62 bf c9 68 8a bd
       -0.06816878 0.10127686 -0.88457036 -0.067582674
0000e0 17 18 b7 ba 67 c2 51 3d a1 36 4c bd d8 fe 39 3e
       -0.0013968971 0.051210787 -0.049856786 0.18163621
0000f0 ab 04 a7 bf 33 c1 b1 bf d7 36 9c 3f 30 b9 ee bc
       -1.30483 -1.3887085 1.2204236 -0.029141039

network.5.running_mean f4 [64]
000000 c5 78 06 42 1b b5 ec 40 41 0d f5 41 d1 23 97 41
       33.61794 7.3971076 30.631472 18.892488
000010 53 2e 1a 42 bb 11 ac 42 e7 c4 8a 41 30 2e 07 42
       38.54524 86.03463 17.346144 33.795105
000020 11 48 27 42 2b 5b 4b 3e a7 84 38 42 5c 54 09 42
       41.820377 0.19858997 46.129543 34.332382
000030 24 68 06 42 59 f2 07 42 7d 3c 06 42 3a 53 0b 42
       33.6017 33.986668 33.55907 34.831276
000040 94 6c 0b 42 ae 97 02 42 1d ef 23 42 68 0c b0 41
       34.856033 32.648125 40.98351 22.006058
000050 c4 f6 15 42 e5 4d 82 42 b8 07 42 42 97 dd 16 42
       37.490982 65.15214 48.507538 37.716396
000060 f8 fe b0 3f 38 86 a8 40 5d e4 0a 42 31 be f2 41
       1.382781 5.266384 34.72301 30.342867
000070 96 85 0b 42 5e db 3c 33 8d c9 00 42 d1 76 8d 42
       34.880455 4.3971674e-08 32.196827 70.73206
000080 93 38 f8 41 16 ba 7a 42 ed b5 fe 3f 10 b0 6c 42
       31.027624 62.681725 1.9899269 59.171936
000090 71 00 21 42 c5 e4 e7 41 92 bc 23 40 bd 60 44 40
       40.25043 28.986704 2.5583844 3.0684044
0000a0 e7 a6 36 42 6e 2a 74 42 88 10 0f 42 7f 70 d5 3f
       45.66299 61.041435 35.766144 1.6674956
0000b0 76 c5 2a 42 b8 d7 75 42 d8 d3 14 42 9f d4 41 42
       42.692833 61.460663 37.20688 48.457638
0000c0 26 eb 0b 42 15 0e 0b 42 d0 4f 0f 42 8e 44 42 42
       34.979637 34.763752 35.82794 48.566948
0000d0 9c b9 00 42 8d 77 13 42 6f 12 a0 41 d0 0b 0f 42
       32.18126 36.86675 20.009 35.761536
0000e0 f5 69 0a 42 97 6a f1 41 95 a8 08 42 87 66 f9 41
       34.603474 30.177046 34.16463 31.175062
0000f0 0a af 2f 3b cf c4 f9 3f b8 35 a0 06 85 27 09 42
       0.0026807212 1.9513186 6.0264243e-35 34.288593

network.5.running_var f4 [64]
000000 23 2f 95 45 66 36 86 43 e8 24 7c 45 36 3f 81 43
       4773.892 268.425 4034.3066 258.49384
000010 92 88 c2 45 04 e5 3a 45 5e ab 9d 43 0a db 98 45
       6225.0713 2990.3135 315.3388 4891.38
000020 6f 9b 80 44 0f d8 79 40 82 df a5 44 53 33 48 44
       1028.8573 3.9038122 1326.9846 800.80194
000030 e7 5a 95 45 4b cd 9b 45 c8 bc 94 45 96 31 a1 45
       4779.363 4985.6616 4759.5977 5158.198
000040 ee 96 d3 43 cd f9 8e 45 5f 9f db 45 d5 6b 1f 44
       423.17914 4575.225 7027.9214 637.6849
000050 ec e9 b9 45 27 00 61 44 1e 34 af 44 d1 14 c3 45
       5949.24 900.0024 1401.6287 6242.602
000060 f4 04 65 42 4b d7 ae 42 c2 8d 9e 45 a8 63 45 44
       57.254837 87.420494 5073.7197 789.5571
000070 82 0d 3f 44 5d 6e 29 34 b1 b7 d3 43 11 75 98 44
       764.21106 1.5779501e-07 423.4351 1219.6583
000080 f3 20 81 45 66 0f 6a 44 60 65 9e 42 45 cb 2b 44
       4132.1187 936.2406 79.198 687.1761
000090 d1 c4 81 44 38 14 fc 43 c2 f1 b0 42 04 fa bb 42
       1038.1505 504.15796 88.47218 93.98831
0000a0 ef 27 2b 44 6f a6 81 44 51 e3 a6 45 c1 83 99 42
       684.62396 1037.201 5340.4146 76.75733
0000b0 41 31 61 44 9c c9 8f 44 d8 be ad 45 dd 5d ce 44
       900.7696 1150.3003 5559.8555 1650.9332
0000c0 6c 92 9f 45 eb 61 9f 45 3c 37 a9 45 5f bc 82 44
       5106.3027 5100.2397 5414.9043 1045.8866
0000d0 7e ed 86 45 70 db b8 45 76 4a 7e 43 49 5c a7 45
       4317.6865 5915.4297 254.29086 5355.5356
0000e0 1a ac 9d 45 61 e4 72 45 b6 00 99 45 c8 0f 7f 45
       5045.5127 3886.2737 4896.089 4080.9863
0000f0 56 ca 56 3c 96 32 7b 42 9d 65 2c 08 5f 0f 9a 45
       0.013109764 62.7994 5.1878813e-34 4929.9214

network.6.weight f4 [32, 64]
000000 a7 42 a5 3e 9d d4 64 bd 41 56 54 3f a3 18 ae be
       0.32277414 -0.055866826 0.82944113 -0.3400317
000010 a6 9c cd 3e 9d b0 23 bf d7 35 63 bd 6c 8b f9 3e
       0.40158576 -0.63941365 -0.055471268 0.48739183
000020 da 87 0a bf 1d 15 a8 be 2b f2 4c be c6 52 20 bf
       -0.54113543 -0.32828608 -0.20014255 -0.626263
000030 57 ca ad 3e 9d 93 a6 3e ea 35 00 3f 3f 05 c4 3e
       0.33943436 0.32534495 0.50082266 0.38285252
000040 0f a5 06 be db 01 f1 3e 9f 3c 54 3f 8d 6d 55 bd
       -0.13148902 0.47071728 0.82905 -0.05210643
000050 cb e5 85 3f b2 3a 98 be 45 89 37 be 91 71 40 3f
       1.0460752 -0.2973228 -0.17923458 0.7517329
000060 6a 18 1b be 0d 62 90 be e5 67 a9 3d 5d 21 63 be
       -0.15146032 -0.28199807 0.082717694 -0.22180696
000070 c0 96 20 bf 74 52 9c be 45 3a 85 be f7 97 58 be
       -0.62730026 -0.30531657 -0.2602102 -0.2115172
000080 00 ce 35 3f 71 97 78 be ba 26 2e be 44 95 b2 be
       0.71017456 -0.2427652 -0.1700696 -0.34879506
000090 10 c6 24 bd 27 0c 34 bf 02 93 13 bd b4 4e bc be
       -0.04022795 -0.70331043 -0.03602887 -0.36778796
0000a0 d6 91 4b be 70 d6 bb be 86 3e 8c 3e 85 f2 fa bd
       -0.19879851 -0.3668704 0.27391452 -0.12253288
0000b0 d4 6d 88 be a8 09 e0 be fa 4e ab 3d fd 5a c9 be
       -0.26646292 -0.43757367 0.08364673 -0.3932723
0000c0 9a 23 91 3e 49 2e a9 3e 06 8b 5d 3e 96 a1 1d be
       0.28347474 0.33043125 0.21635064 -0.15393671
0000d0 9a 6e b1 3e a5 e8 3e 3f bf c4 8a be e0 d4 a3 3e
       0.34654695 0.7457374 -0.2710323 0.31998348
0000e0 0e cc f6 3e b1 fe 25 3f 31 44 d1 3e 10 dd 99 3f
       0.48202556 0.64841753 0.40872338 1.2020588
0000f0 e8 b3 89 3d d1 91 2c be 77 0f d3 3e 7e f7 27 3e
       0.067237675 -0.168525 0.41222736 0.16403005
000100 83 58 49 3e 19 73 32 be 3d f4 6b 3f c5 4e c9 be
       0.19662671 -0.17426719 0.92169553 -0.3931791
000110 4f 14 da 3e 85 35 58 bf f3 53 36 be e6 b3 11 3f
       0.4259362 -0.84456664 -0.17805462 0.5691513
000120 ee e8 2b bf e5 1c 83 be f1 f7 a8 be 1b dd 5f bf
       -0.671523 -0.25607982 -0.33001664 -0.87446755
000130 dd ec 90 3e 62 58 18 3f 57 78 c9 3e ff 77 95 3e
       0.28305712 0.5950986 0.39349625 0.29193112
000140 40 7a 8d be e8 3e 0c 3f d0 b4 4c 3f a0 ff 7b be
       -0.27632332 0.5478349 0.799634 -0.24609232
000150 fd 95 93 3f 02 b4 48 be 6d f3 04 be df 22 36 3f
       1.1530148 -0.19599918 -0.12983485 0.7114696
000160 c1 a8 07 be ed 50 a5 be db cd b5 3e 6b 44 91 be
       -0.13247968 -0.32288304 0.35508618 -0.2837251
000170 ed 53 4c bf 14 7e 05 bf 03 fa 28 be cf 4a 7b be
       -0.7981556 -0.52145505 -0.16501622 -0.24540256
000180 be 75 41 3f f8 1f 86 be 7c 64 89 be 4a 7d 8b be
       0.75570285 -0.26196265 -0.26834476 -0.27244025
000190 a9 e2 f1 bd 39 6e 0b bf c8 e9 81 be 98 c4 ae be
       -0.1181081 -0.5446506 -0.25373673 -0.34134364
0001a0 28 e2 9a be ab 19 c5 be a7 11 ba 3e 50 fc 91 be
       -0.3025067 -0.38496146 0.36341593 -0.28512812
0001b0 57 d8 a2 be 48 24 e9 be 69 11 24 3e c7 3d b7 be
       -0.3180568 -0.45535493 0.16022266 -0.3578932
0001c0 f0 3b 7c 3e 02 97 8a 3e 3c 8f 6c 3e af 70 b1 be
       0.2463224 0.27068335 0.23101515 -0.34656283
0001d0 88 02 dd 3e 58 df 45 3f e0 da c2 be 3e 1f 27 3e
       0.43165994 0.7729392 -0.38057613 0.16320512
0001e0 f4 7c 12 3f a4 32 45 3f 9c 1a cc 3e 41 7c 8e 3f
       0.57221913 0.77030396 0.3986405 1.1131669
0001f0 b7 9f 13 3b 6e 5d ad be ce 80 0f 3f 40 df 9b 3e
       0.0022525617 -0.33860344 0.56055915 0.30443764
000200 54 51 12 c0 79 88 6b bf 20 41 44 c0 ef 92 59 bf
       -2.2862139 -0.92005116 -3.066475 -0.8498983
000210 94 df 12 c0 86 7b ec be eb ba 6a bf 1c 05 1b c0
       -2.2948961 -0.4618799 -0.91691464 -2.4221869
000220 b9 1a 69 bf 4c 99 5e bf 7f 1a 8d bf 78 48 2c bf
       -0.910564 -0.8695266 -1.1023711 -0.6729808
000230 de 2e 26 c0 0c 7f 14 c0 18 b8 1c c0 ed c0 0c c0
       -2.5966105 -2.3202543 -2.4487362 -2.1992753
000240 32 b1 73 bf b3 d7 1f c0 86 63 3c c0 be cb 38 bf
       -0.95192254 -2.4975402 -2.9435744 -0.72185886
000250 aa 0b 29 c0 94 d6 76 bf e4 64 8b bf dd 39 25 c0
       -2.641337 -0.9642117 -1.0890164 -2.5816567
000260 cd 04 4b bf 37 12 7e bf 41 c3 04 c0 46 4a 75 bf
       -0.793042 -0.99246544 -2.0744174 -0.9581646
000270 7e fb 2e bf a6 48 98 bf f6 28 8b bf e2 15 8c bf
       -0.68352497 -1.189717 -1.0871875 -1.0944178
000280 3b c3 30 c0 e0 ef 4f bf cc c0 51 bf 73 e7 62 bf
       -2.761916 -0.81225395 -0.8193481 -0.88634413
000290 ed 37 6f bf 0e b0 47 bf 87 1a 80 bf 86 59 88 bf
       -0.9344471 -0.78003013 -1.0008096 -1.065232
0002a0 16 fa 5f bf 4b 9a 6e bf 82 79 0e c0 e3 98 69 bf
       -0.87490976 -0.9320418 -2.2261662 -0.9124891
0002b0 86 65 8b bf 97 76 59 bf 02 37 07 c0 f3 e4 72 bf
       -1.0890357 -0.8494658 -2.1127324 -0.948806
0002c0 2e 01 22 c0 71 b8 29 c0 ab c3 12 c0 0a 12 4b bf
       -2.531322 -2.6518824 -2.2931926 -0.793244
0002d0 04 f8 30 c0 0c 82 13 c0 46 09 7a bf d9 88 09 c0
       -2.7651377 -2.3048124 -0.976704 -2.1489775
0002e0 60 4f 29 c0 c8 66 23 c0 2b 30 3d c0 f7 72 01 c0
       -2.6454697 -2.5531483 -2.956065 -2.022642
0002f0 55 3d 72 bf 5f 3e 73 bf bd 70 85 3f a0 a5 26 c0
       -0.94624835 -0.95017046 1.042503 -2.603859
000300 05 67 bc 3e 78 30 b1 be 97 2f 5e 3f ea 9c 95 be
       0.36797348 -0.3460729 0.86791366 -0.29221278
000310 2f 23 23 3f bb a5 6b bf a4 64 9a be 95 31 f7 3e
       0.6372556 -0.9204976 -0.30154908 0.48280016
000320 04 df 50 bf e4 2b ba be 68 ce 50 be 83 04 6f bf
       -0.81590295 -0.3636161 -0.20391238 -0.9336626
000330 68 e5 b6 3e db 20 ff 3e ac 96 ed 3e a4 48 e9 3e
       0.35721898 0.49829754 0.46404016 0.45563233
000340 b4 21 db be f9 53 f6 3e e6 f9 5a 3f 3f a6 5e be
       -0.4279915 0.4811094 0.85537565 -0.21743105
000350 c7 03 95 3f 44 9b 78 be bc 59 97 be 1b b6 4d 3f
       1.1641778 -0.24277979 -0.2956065 0.80355996
000360 e2 0e dd bd a1 bd b9 be e4 b3 94 3e b5 f2 80 be
       -0.10793854 -0.36277488 0.29043496 -0.2518517
000370 ca a3 3b bf 24 6b 14 bf 87 6a 7d be 99 a6 aa be
       -0.732968 -0.57975984 -0.24747668 -0.3333023
000380 48 f2 6d 3f 9e 63 88 be 50 1e b4 be 84 3e da be
       0.92947817 -0.26638502 -0.35179377 -0.4262582
000390 b1 93 9e be 3b 78 35 bf cc 91 0b be 42 2d e0 be
       -0.30972055 -0.7088658 -0.13629836 -0.4378453
0003a0 bf 7f 39 be 5c 70 f4 be 5a 90 e1 3e 76 b9 88 be
       -0.18115138 -0.47741973 0.44055444 -0.26703995
0003b0 b2 9d ba be 39 49 fa be f7 37 4d 3e ea 7e f9 be
       -0.36448437 -0.4888399 0.2004088 -0.4872964
0003c0 84 e3 ac 3e e0 1e 0d 3f be 91 82 3e 0f d8 81 be
       0.3376733 0.55125237 0.25501817 -0.25360152
0003d0 2f 4d d9 3e 27 7a 5b 3f 39 82 91 be 78 8c cb 3e
       0.424417 0.85733265 -0.28419665 0.39755607
0003e0 e8 32 1a 3f 61 fe 52 3f cc 42 10 3f 9c ee 9d 3f
       0.60233927 0.824194 0.56351924 1.2338443
0003f0 31 f0 f2 bd ad 56 d4 be ac 44 08 3f 1f 9d cb 3e
       -0.11862219 -0.41472378 0.53229785 0.3976831

network.6.bias f4 [32]
000000 2a 6e bd 3e d1 b2 b3 3e 6b c9 92 3f db ab 00 3f
       0.3699811 0.35097364 1.1467718 0.5026223
000010 cd 8b 11 3f 9d b4 81 3f 44 67 ab 3f 20 43 f7 3e
       0.56853944 1.0133244 1.3390889 0.482934
000020 3e 0d ad 3e eb fe 6a 3f 90 e6 80 3f 02 e8 05 3f
       0.33799165 0.91795224 1.0070362 0.5230714
000030 54 4b cb 3e 2e b8 eb 3e 9f 0f ef 3f 21 64 0f 3f
       0.39705908 0.46038955 1.8676642 0.5601216
000040 68 5b 05 3f 27 d2 e1 3e e7 0c ef 3e 86 ac 75 3f
       0.520926 0.44105646 0.4668953 0.95966375
000050 ca 20 fa 3e 74 3f 84 3f 9c 77 db 3e a2 57 d4 3e
       0.4885314 1.0331864 0.42864692 0.4147311
000060 e5 fb bb 3e 5c fd 04 3f 3f 12 dd 3e 55 e2 19 3f
       0.36715618 0.51949096 0.43177983 0.6011098
000070 ea e0 6f 3f ab a4 f2 3e d8 bf dc 3e 72 fb f0 3e
       0.93702567 0.47391257 0.43115115 0.47066838

network.8.weight f4 [1, 32]
000000 76 80 88 3e 9a 5f b5 3e 28 0f fb bf 88 8c ff 3e
       0.26660508 0.354245 -1.9614 0.49911904
000010 18 bc cd 3e a3 65 5f bf 36 5f 7a 3f 97 48 c1 3e
       0.40182567 -0.8726446 0.9780153 0.37750694
000020 56 00 9b 3e 95 86 e8 bf 1c 38 fc bf 75 b2 d2 3e
       0.30273694 -1.8166071 -1.9704623 0.41151777
000030 d4 89 b9 3e 49 75 ec 3e 84 5f 5c 3f 27 61 d0 3e
       0.36237967 0.4618323 0.86083245 0.4069912
000040 79 ae f3 3e 7e 77 c1 3e a1 e0 f5 3e f3 2a fb bf
       0.4759405 0.37786478 0.4802294 -1.9622482
000050 44 7d ea 3e b1 52 ed bf fe 5c d0 3e 45 af e1 3e
       0.45798695 -1.854086 0.40695947 0.44079033
000060 60 0a b2 3e 37 43 a9 3e e2 02 d8 3e 29 67 05 3f
       0.3477354 0.33059093 0.421897 0.52110535
000070 1e 40 ef bf c3 08 00 3f df 63 c0 3e 7e 1b d8 3e
       -1.8691442 0.5001337 0.37576196 0.42208475

exp_avg f4 [128, 119]
000000 41 4b 02 3c 05 66 5d 3c 97 77 d7 bb 96 ed ec ba
       0.007952512 0.013513093 -0.0065755355 -0.0018076177
000010 1d 10 5f 39 a8 b9 99 39 9c 66 f7 39 6a bc 0e 3a
       0.0002127294 0.0002932076 0.0004718796 0.0005444946
000020 a9 2a 0a 3b 0f bb 9e 3b 6f 81 82 bc 9d 84 69 3a
       0.0021082556 0.0048440765 -0.01593086 0.00089080055
000030 98 49 54 bc 7a 15 07 3c 87 cb 1c 3b 2e 1f ab 3a
       -0.012956999 0.0082448665 0.0023925023 0.0013055557
000040 31 ce 9e 3a 58 47 3f 3a 99 17 0c 3c bf 73 c3 ba
       0.0012115893 0.0007296703 0.008550548 -0.0014911814
000050 e4 79 ba ba 48 0d 4f 3a c6 5a 10 39 3c 5f bb 3c
       -0.0014227 0.00078984024 0.00013766726 0.02287256
000060 06 b8 31 3a 28 70 3f bd 88 74 6b ba 58 c1 16 3a
       0.0006779436 -0.04673782 -0.0008981903 0.00057508564
000070 91 4e 7e 3a 72 4d 28 3a 26 b9 90 3a bc e2 48 39
       0.00097010384 0.00064202317 0.0011041507 0.00019157951
000080 89 c7 47 3a 30 9e b0 39 d3 23 91 b8 c4 44 0f 39
       0.00076209806 0.00033687195 -6.9208116e-05 0.0001366316
000090 f3 a5 8a 3b 5e 30 04 3a a7 86 55 3a 8d 93 eb 39
       0.0042312085 0.00050426077 0.000814537 0.00044932627
0000a0 ad 5d f5 b9 c8 34 24 b9 9b a3 1d ba 94 5f 35 3a
       -0.00046799835 -0.00015659921 -0.0006013454 0.00069188443
0000b0 71 96 c7 39 47 71 92 3a c6 46 c4 bc 97 7e 89 39
       0.00038068325 0.0011172675 -0.023959529 0.00026224993
0000c0 01 e1 79 b9 5f ff cd 39 4e 69 d4 39 5b f0 c6 b8
       -0.00023830311 0.00039290913 0.0004051425 -9.4861454e-05
0000d0 18 1f 16 3a fc 77 a2 39 b2 03 ca 39 34 26 be b9
       0.0005726679 0.00030988443 0.00038531196 -0.00036268088
0000e0 17 74 67 3a f7 56 f5 39 cf 9a 3d 3c bb be bb 39
       0.00088292494 0.00046794835 0.011572554 0.00035809525
0000f0 f6 70 cd 39 53 74 98 3a 96 3a 03 3a 28 dc 23 ba
       0.0003918481 0.0011631347 0.00050059834 -0.00062507624
000100 07 de 33 3a 49 51 f2 39 fe e5 1c b9 d5 ed c2 39
       0.0006861393 0.000462184 -0.00014962998 0.00037179762
000110 1c a9 f7 39 94 d9 e5 b9 3a cc 9f b9 9b e3 01 3a
       0.00047237508 -0.00043840392 -0.00030479004 0.00049548753
000120 1d e1 64 bb 60 e7 15 3a 4d b4 cb 39 7e 31 b8 39
       -0.0034924217 0.00057183765 0.00038853512 0.0003513209
000130 81 ce f0 39 77 d0 d5 39 52 aa 68 39 d2 59 5c b9
       0.00045930225 0.00040781844 0.00022188693 -0.00021014296
000140 18 96 d3 3a fd c6 8c bb 38 9a ac b6 d2 ee 88 3a
       0.0016142754 -0.004296182 -5.143953e-06 0.001044715
000150 74 49 d0 39 99 8e be 39 6c 44 35 3a ad a4 79 3a
       0.00039727578 0.00036345868 0.00069147977 0.0009523135
000160 a1 62 bf 39 82 7d 5a 39 92 aa 58 3a 7b f6 c7 39
       0.00036503843 0.00020836855 0.0008265163 0.0003813988
000170 ce e1 f5 ba d1 62 f5 b6 f4 18 c3 39 0f 7f aa 39
       -0.0018759312 -7.3130727e-06 0.0003721189 0.00032519593
000180 43 bb 77 39 ba 45 42 3a 81 95 02 3a 8c 0e 88 39
       0.00023625516 0.0007410903 0.0004981384 0.0002595078
000190 6d dd d6 39 4b f8 ad 3a 66 db e3 38 bc 15 1a 3a
       0.00040982236 0.001327285 0.000108650696 0.00058778725
0001a0 2e 2a 8d 39 7f 5a 1b b9 99 33 89 3a d2 08 d0 39
       0.00026925042 -0.00014815664 0.0010467648 0.00039679423
0001b0 8a d3 f5 b8 cd aa 21 3b bc a6 58 3a 01 45 21 39
       -0.000117219126 0.0024668456 0.00082645915 0.00015379862
0001c0 91 90 d0 b8 d0 09 ce 39 d8 8f 46 3a 63 82 c4 39
       -9.9451405e-05 0.00039298693 0.0007574535 0.0003748118
0001d0 e4 00 c7 39 56 84 4e 3a 75 ba 9c 3a 2e db 98 3c
       0.000379569 0.0007877996 0.0011957424 0.0186592
0001e0 b8 51 41 bd 81 98 ab bc 60 81 87 bc 96 99 a4 bc
       -0.047197074 -0.020946743 -0.016541183 -0.020092767
0001f0 4e 10 a5 bc 2a 13 a2 bc 32 62 a4 bc da db 27 bc
       -0.020149376 -0.019784529 -0.020066354 -0.010245288
000200 55 62 2c bc fa 8b c5 bc d4 80 23 3d 1d 9d 99 bc
       -0.010521491 -0.024114598 0.039917782 -0.018751675
000210 c9 31 6a bc a5 ad 50 bc ba a6 82 3d 4c ad df bb
       -0.014294096 -0.012736713 0.06379457 -0.0068260785
000220 4e a4 2e bc 95 ae cf bb 92 3a 6b bb 2a 42 b1 bb
       -0.0106592905 -0.0063379505 -0.0035893065 -0.0054094987
000230 67 ac 1d 3e 74 7b 8f bb da 31 d2 b9 3a f1 53 bb
       0.15397798 -0.0043787304 -0.00040091464 -0.0032339827
000240 c6 4a 3e bd d1 54 88 bb 25 22 9d bb 5e 5f 5e bb
       -0.04645803 -0.0041605015 -0.00479533 -0.0033931355
000250 f8 a7 3a bb 2c 5a 8a bb 98 fc 50 bb 85 3c 78 bb
       -0.0028481465 -0.004222175 -0.003188884 -0.003787787
000260 5e a7 a5 bb 3a d2 ca b9 66 c5 87 bb 78 ee 32 bb
       -0.005055352 -0.00038685073 -0.004143405 -0.0027302783
000270 79 52 a8 bb 04 4b 8b bb 7b 77 8b bb b0 cc 48 bb
       -0.0051367846 -0.004250886 -0.0042561865 -0.0030639581
000280 a3 a6 7e bb f2 7e 6c bb b4 79 a7 bb f6 b1 c3 bb
       -0.0038856647 -0.0036086407 -0.0051109437 -0.0059721423
000290 44 a8 eb bb 38 53 44 bd 1e db 88 bb 3f fb 7e bb
       -0.0071916897 -0.047930926 -0.0041765114 -0.0038907079
0002a0 40 fa 56 bb ec 72 aa bb 0e a2 7c bb fc 4c cb ba
       -0.003280297 -0.005201688 -0.003854874 -0.0015510614
0002b0 52 52 44 bb 81 e2 91 bb 23 79 5c bb 69 8c c8 ba
       -0.0029956293 -0.00445205 -0.003364154 -0.0015300635
0002c0 58 ca 9b bb f1 69 24 3e a1 26 67 bb eb 77 56 bb
       -0.004754346 0.16056038 -0.0035270827 -0.0032725285
0002d0 63 13 14 ba c0 19 49 bb 95 ab 24 3a 09 8a 8d bb
       -0.0005648641 -0.0030685514 0.0006281671 -0.0043194336
0002e0 3c cf 1f 3e 28 94 26 bb 3b 54 7c ba 44 bd 8b bb
       0.15606397 -0.0025417898 -0.00096255884 -0.0042645056
0002f0 15 c1 a9 bb 4f 36 79 bb a0 f2 00 bb 24 60 a6 3c
       -0.005180488 -0.0038026755 -0.0019675866 0.020309515
000300 4f de 7a bb 57 ae d6 bb 96 4a c7 bb a6 8b 5a ba
       -0.003827948 -0.0065515446 -0.0060818894 -0.0008336849
000310 ba 14 99 bb a5 f3 df ba 4f 93 71 bb fb 1e 16 3b
       -0.0046716603 -0.0017086162 -0.0036861484 0.002290665
000320 70 7c d8 ba 8e 0a 01 bc 3f 94 8f bb ef 8a a5 bb
       -0.0016516577 -0.007876052 -0.004381686 -0.0050519626
000330 3e 18 b0 39 a5 e0 90 bb c6 8b 5b bb a1 70 bd bb
       0.00033587398 -0.004421311 -0.003350006 -0.0057812487
000340 36 53 63 b8 a6 f7 79 bb 73 72 be bd 09 a4 eb ba
       -5.4198514e-05 -0.0038141995 -0.09299173 -0.0017977963
000350 f2 08 97 ba f5 78 e0 ba 7b 3c 81 39 05 da 92 ba
       -0.0011523052 -0.0017125892 0.0002464986 -0.0011203891
000360 21 2e 7b bb e1 1f 61 bb 38 f0 e8 39 d4 3c cf bb
       -0.0038327056 -0.0034351277 0.00044429465 -0.00632439
000370 e1 08 bb 39 f7 fe 5c bb db 53 e8 bb ee 96 4e bb
       0.00035674035 -0.0033721307 -0.0070900745 -0.0031523067
000380 88 03 b7 bb e0 79 6a bb 84 0c e2 bb 4a af 71 3c
       -0.0055851378 -0.003577821 -0.0068984646 0.014751265
000390 2a da 85 bb f9 2c 55 bb 6f a6 7b bb 0b 20 8e bb
       -0.004084845 -0.0032528026 -0.0038398763 -0.004337316
0003a0 43 f4 b8 bb 3a 7a 02 bc 46 fb 45 bb 93 89 97 bb
       -0.0056443526 -0.007963711 -0.0030209585 -0.0046245544
0003b0 f9 fc c5 bb 06 bb d0 ba 38 a2 53 3c 0a bd c9 bc
       -0.0060421196 -0.0015924878 0.012917094 -0.024626274
0003c0 5f 09 e5 3a f5 9f af bb 40 68 61 bc 3a f4 62 bc
       0.0017474106 -0.0053596445 -0.013757765 -0.013852173
0003d0 58 96 5e bc ef 3c 62 bc 89 78 0a bc d8 b0 11 bc
       -0.013585649 -0.013808473 -0.008451589 -0.0088922605
0003e0 4b 78 95 bc 47 bc a5 3c 1c 5b b6 bb da 4f f8 3c
       -0.018245837 0.02023138 -0.0055650603 0.030311514
0003f0 4e a7 33 bc ac 90 87 3c f5 a5 f6 bb 58 b0 5b bc
       -0.0109651815 0.016548477 -0.007527108 -0.013408743

exp_avg_sq f4 [128, 119]
000000 8d c7 04 3f f1 02 4d 3e 32 d3 de 3d 39 e6 92 3e
       0.5186699 0.20020653 0.10880126 0.2869127
000010 3e e6 b9 3d 0d 1d dd 3d 2d e5 e5 3d 98 ae 7f 3d
       0.09077118 0.107965566 0.112253524 0.062422365
000020 4b 3a e4 3f 72 19 c8 3d a9 20 34 3d ab 61 4b 3d
       1.783029 0.09770478 0.04397646 0.04965369
000030 f0 86 e3 3c 02 58 a3 3c 6c 77 b0 3c f5 9f 48 3d
       0.027774304 0.019939426 0.02154132 0.048980672
000040 77 fd b2 3c 25 91 b8 3c 83 27 d6 3f 2f b5 ff 3a
       0.021849377 0.022530148 1.6730808 0.0019508953
000050 09 c7 f1 3a 35 e8 fc 3a de 75 bd 3b 6f 32 f1 3a
       0.0018446158 0.0019295277 0.005781873 0.0018401871
000060 39 38 fa 3a 03 f3 06 3b b8 2f c3 3b 7b de 2f 3b
       0.0019090242 0.0020591624 0.0059566163 0.002683549
000070 b7 18 09 3b 71 25 14 3b fa 76 88 3b fd f0 35 3b
       0.0020919272 0.0022605325 0.0041645737 0.0027762048
000080 8e 7a 05 3b f8 04 af 3b de 0a f0 3a 81 79 2c 3b
       0.0020367238 0.0053411685 0.0018313786 0.002631754
000090 c7 9a fe 3a e7 d2 a5 3b 50 b1 00 3b 81 4a 15 3b
       0.0019424789 0.005060542 0.0019636936 0.0022780003
0000a0 7a 18 22 3b 77 1a 0b 3b 4c 77 0c 3b 9e 9c c0 3c
       0.0024733827 0.002122549 0.0021433411 0.02351218
0000b0 58 0f d9 3b d2 bd 09 3b 98 25 8f 41 1d a3 bd 3b
       0.0066241436 0.0021017683 17.893356 0.005787267
0000c0 d2 a5 19 3b 82 1a 15 3b 2e db 4d 3b e7 0d d6 3c
       0.0023444784 0.0022751396 0.003141116 0.026129676
0000d0 dd 8b f0 3a b1 32 f0 3a 9c e9 ee 3a 79 66 f0 3a
       0.0018352229 0.0018325654 0.001822758 0.0018341086
0000e0 28 d8 05 3b a3 10 05 3b 87 57 fe 3a ed 3b f9 3a
       0.0020423029 0.0020304106 0.0019404747 0.0019015052
0000f0 e1 df 10 3b f4 40 f5 3a df 04 0c 3b 8f 7c 5e 3e
       0.0022106098 0.0018711374 0.0021365208 0.21727203
000100 8e e9 ce 3a a5 e4 af 3b 1c 18 f3 3a 34 fc cf 3c
       0.0015786157 0.0053678327 0.0018546614 0.025388815
000110 f8 2d f2 3a 17 43 24 3c fc 5a 00 3b 60 50 c4 3b
       0.0018476835 0.010025761 0.001958548 0.0059910268
000120 a9 1c 3c 3e 09 87 00 3b 6d 59 21 3b 8b 61 00 3b
       0.18370308 0.0019611737 0.0024619952 0.001958939
000130 56 7c 14 3b 7f dc b7 3b 08 9e fe 3a 50 c4 f4 3a
       0.0022657118 0.005611002 0.0019425759 0.0018674228
000140 73 39 08 3b 5e c2 13 3b db 14 9c 3b 03 33 cc 3b
       0.0020786196 0.0022546272 0.0047632284 0.006231667
000150 4a 32 09 3b ef a5 6c 3b de d9 00 3b ba 8b f1 3a
       0.0020934516 0.0036109646 0.001966111 0.0018428483
000160 8a 21 31 3b 7f 4d ae 3b 9f 03 88 3b 55 6f 45 3d
       0.0027028047 0.005319297 0.0041508223 0.048201878
000170 44 0c 3f 3b 6a 40 39 3b ad 46 cc 3c d6 e0 ee 3b
       0.0029151598 0.0028267154 0.024936045 0.007289986
000180 64 98 41 3f ce a3 f9 3a c5 8b f0 3a a5 3c ed 3a
       0.75623155 0.001904601 0.0018352201 0.0018099739
000190 9f f6 9f 3b 9d 0f e4 3a ae b6 02 3b 50 f4 f6 3a
       0.0048816944 0.0017399673 0.0019945311 0.0018841121
0001a0 fb 38 f4 3a 41 10 54 3c ab 79 b1 3b 15 cf f1 3a
       0.0018632704 0.012943328 0.0054161153 0.0018448556
0001b0 eb f6 06 3b c6 d5 33 3b a2 91 11 3b b4 36 75 3b
       0.0020593952 0.0027440651 0.0022212048 0.0037416639
0001c0 00 7d 04 3c ec b3 32 3b bc b2 1d 3c 9b f4 8e 3b
       0.008086443 0.0027267886 0.009625133 0.0043626553
0001d0 50 2c 02 3b 83 3c 38 3b 5e 03 f2 3a 8a d7 6c 3c
       0.0019862838 0.002811224 0.0018464138 0.014455685
0001e0 a7 98 08 3c 0c d0 2f 3d 21 a4 d4 3b 3e 50 ba 3b
       0.008337176 0.04292302 0.0064892923 0.005685835
0001f0 a1 8d be 3b 78 63 bc 3b 2b 21 c0 3b ae 5a dc 3a
       0.0058152233 0.0057491623 0.005863329 0.0016811693
000200 b0 b8 19 3d 03 0e de 3c b5 72 68 3c 29 e9 5a 3c
       0.037529647 0.02710629 0.014187505 0.013361254
000210 b7 2c f5 3a 53 c3 1a 3c 95 6c f6 3d e6 19 f9 3a
       0.0018705343 0.009445983 0.12032429 0.0019004911
000220 dd 2e f7 3a 45 d8 0f 3b 8e e4 91 39 4f 65 7d 39
       0.0018858571 0.0021948975 0.00027826842 0.000241657
000230 0b a6 2e 3b ce 58 b1 39 27 ba a6 39 1d 87 78 39
       0.0026649262 0.00033826235 0.00031800682 0.00023701457
000240 b3 f7 08 3a 06 6c 43 39 c6 5c 72 39 75 5f 90 3a
       0.00052248983 0.00018636891 0.00023113479 0.0011014777
000250 10 d0 51 3a 5e bd 42 3a 6d 33 0a 3d d6 10 5b 3a
       0.0008003721 0.00074287306 0.03374045 0.0008356696
000260 95 26 c6 39 66 d6 db 39 7a 0e 97 39 99 3c 30 39
       0.0003779425 0.00041930674 0.0002881175 0.00016807242
000270 de 1f ec 39 d9 40 ac 39 0d d1 e1 39 bb 46 c2 39
       0.0004503717 0.00032854712 0.000430711 0.00037055262
000280 cc e7 9b 39 a1 64 b2 3a 4d 74 60 3a e1 6e 96 39
       0.00029736606 0.0013610312 0.0008562252 0.0002869284
000290 d2 b0 a1 39 c5 dc 91 3e 35 b9 7a 39 ca 83 83 39
       0.00030840054 0.28488746 0.00023910853 0.00025084458
0002a0 60 db 30 39 77 35 af 3a f5 d3 87 39 f9 ad 31 39
       0.00016866392 0.0013367374 0.00025907127 0.00016944845
0002b0 e2 5a b4 3a b9 7a 4d 39 44 62 1c 3a 9d f6 ca 3a
       0.0013759995 0.00019596041 0.00059655705 0.0015484873
0002c0 52 28 e7 39 c9 ab 54 3b e6 28 e5 39 07 ff 5c 3a
       0.00044089794 0.0032451025 0.00043708755 0.0008430336
0002d0 3e 71 1f 3d 6e d9 86 39 3c 8a af 3b a2 e6 97 39
       0.038926356 0.0002572047 0.005357055 0.000289728
0002e0 39 95 49 3b 2d ec 80 39 50 2e aa 3a 7d 3b 09 3b
       0.003075911 0.00024590027 0.0012983773 0.0020939999
0002f0 e7 20 df 39 b9 c1 8a 3b 59 1f 06 3a 90 b7 37 3e
       0.0004255839 0.0042345193 0.00051163655 0.17941117
000300 09 3f c9 39 96 0c a2 39 40 b1 f2 39 88 93 85 39
       0.00038384672 0.00030908425 0.00046289898 0.00025477656
000310 2d 3d c8 39 0b 32 41 3a 6e b2 42 39 e0 91 90 3a
       0.00038192552 0.00073698227 0.00018567752 0.0011029802
000320 00 7e c4 39 4c f6 41 3a 23 ed 0d 3a 80 cf 40 39
       0.0003747791 0.0007399067 0.0005414059 0.00018387847
000330 ad a9 99 3f 5c f5 4c 39 d9 27 4f 3a e0 6a 74 39
       1.2004906 0.0001954636 0.0007902361 0.00023309467
000340 5a ad 87 39 d3 d9 a4 39 55 14 84 3d b7 3e 6f 39
       0.00025878364 0.0003144281 0.064491905 0.00022816179
000350 0d 45 98 39 a3 b9 94 39 de a4 39 3b d6 ec 79 3e
       0.00029043146 0.0002836707 0.0028327028 0.24406752
000360 11 95 a6 39 08 94 78 39 00 d1 f2 3a 15 01 b7 39
       0.0003177305 0.00023706269 0.0018525422 0.00034905286
000370 d9 5b ad 39 b2 85 3e 3b ed 26 a4 39 88 96 83 39
       0.00033065563 0.0029071388 0.0003130952 0.00025098422
000380 7c a1 89 39 97 7b 32 3b 11 e8 ae 39 b3 1e fb 3a
       0.00026250992 0.002723431 0.0003336077 0.0019158929
000390 b6 af d9 39 7b 9f 61 3a 23 6a 0f 3a 57 a5 fd 3c
       0.0004152038 0.0008606833 0.00054708327 0.03096263
0003a0 ab a8 94 39 50 02 ec 39 46 aa 8f 39 1a b8 b7 39
       0.00028354427 0.0004501515 0.0002740195 0.00035041646
0003b0 83 be 4d 3b 51 6c 6c 3b a8 17 02 3d a5 cf b1 3c
       0.0031394071 0.0036075304 0.03176084 0.021705458
0003c0 28 ce 55 3e a8 fa 9a 3d 06 7a 2d 3d 78 34 2c 3d
       0.20879424 0.0756734 0.0423527 0.042042226
0003d0 31 38 2a 3d 6f 68 2e 3d ac f0 7e 3c ba 86 a1 3c
       0.041557495 0.042580064 0.01556031 0.019717563
0003e0 c4 24 8d 3c 34 a2 94 3c ca e8 a2 3f 93 ef ad 3c
       0.017229445 0.01814375 1.2727292 0.021232402
0003f0 47 fd c0 3c 2f 9a ae 3c b7 8b 90 3c 93 d7 e4 3d
       0.023558272 0.021313755 0.017644746 0.1117393
